pileup_0/lightning_checkpoints/LRT_GNN/fulltrain/checkpoints/epoch=98-step=396000.ckpt (torch, 773717 bytes, 140 tensors)

input_network.0.weight f4 [64, 3]
00000000: 1cac 623d d475 c6bd cdea bf3c 13d0 4d3c
00000010: aab0 20bd 9a99 bf3b 4d9c 77be 9088 01be
00000020: 9b1a fe3c 5a22 adbe 8d36 dabd 8570 f0bd
00000030: 255c 25be 4ddf 18be f939 a5ba 0ac5 323d
00000040: 9422 6dbe 8f79 cd3c b608 793d 0ab2 15be
00000050: 98ef e2bd 1483 5f3d a39c d7be ef57 b73c
00000060: afdb 5b3d 009f 94be 0895 1d3c 654b d1be
00000070: 76c3 983d 3d85 6cbd be65 56be c839 81bd
00000080: ce9e 62bc 52fb b03e e436 47bd b631 2b3e
00000090: 26c6 2f3e 4f16 50b9 492a 29bd 1a04 703e
000000a0: eb44 a2bd 9f13 1abd 0c5a 7c3e 7e17 ea3b
000000b0: 01de a83d 3a45 3c3e 4aff fe3d 1743 463d
000000c0: 6739 d73d e492 4ebd 4c2f aa3c d6a6 103e
000000d0: 472e ea3d e16f 96bc b859 ddbc e37c 42be
000000e0: feeb b33d 19dd 1e3d cb09 24be 1dd1 e63a
000000f0: 797f 8b3e ff04 153e 71d9 e03c c6c7 533d
00000100: c1f4 a4be 9ef5 c73c 97a7 9cbe ce04 353e
00000110: 75f0 993d 6592 993d 38cc 37be 866c df3c
00000120: f756 8abe bece 2c3d c8af bebd 7cfd 8f3e
00000130: bdf5 d53d 1d37 d03d 2bc2 573d bb4b 7dbf
00000140: b0ce 8a3c 455f 57be d8e5 ce3d f6e8 c3bc
00000150: 83f8 133d f1cf 76be da37 ab3c 2aa8 803e
00000160: 9089 54be 8119 eb3d f475 60be c308 45bd
00000170: f25f a5bc da1f cbbe 0dcc c03d ad54 643d
00000180: 5e16 003f d330 eb3d 3bb3 b03c 0c39 cd3d
00000190: e766 d1be e83f 49bd 434a d83d 1e3d 3dbf
000001a0: 5271 d23c 7ae8 863d eaa4 1ebe 3133 fa3c
000001b0: 2439 b9be c22b 68be 8cb3 ac3d c03e 683e
000001c0: da17 88be 754d 883d f87e b63e e64c 773b
000001d0: 53d5 593d c9bb 083f b4db d1bc f243 c53c
000001e0: b3a5 993d 1e02 abbf 6684 6e3c 7454 d6be
000001f0: 50e6 b3bd 83f7 98bd 71ef 15be f929 b53c
00000200: b5ba b13d a608 b73d 34be b6bd ed01 30be
00000210: 489b 693e ac81 583d 9f3d b63d b818 583e
00000220: 2bc9 84bd c664 253d 18d2 673e fe81 843d
00000230: ac4c fabc 402a ffbe e289 8abd 5d3f 9b3d
00000240: 385f a4be a847 a43d 5697 a23d 6920 1dbd
00000250: 622d c3be 4222 ab3c 44fb a7bb 9625 4ebe
00000260: 505a fd3d e8d6 a2bd 0ff2 9fbd 1cdc 0e3d
00000270: 3384 7e3e 59f2 0a3e 3385 983c be9b a33e
00000280: 2780 2d3e 0724 1f3e 9c81 dcbe 8c65 f83c
00000290: f943 3dbd 19da 9c3d 308f dbbe e7da f03c
000002a0: b8e1 c4be 5d40 b8bc add2 8ebd 283d bfbe
000002b0: 0d0b d03d 4f63 e03d 83ce 8d3e fb81 e73d
000002c0: dcec 103e 9d96 143e fe5f 35be 1bea 30bd
000002d0: 484a bf3d e4ea 1bbc 28d9 dd3c 6c0e 183f
000002e0: 4687 453c 982e cf3c e10b bcbd 5415 003d
000002f0: 38fe 52be 81cf febd 468f 56bc b5c5 383c
0.055339918 -0.09690443 0.023427391 0.012561816 -0.03923098 0.005847168 -0.24180718 -0.1264975
0.031018546 -0.3381527 -0.10654936 -0.117402114 -0.16148432 -0.14928932 -0.0012605778 0.043644942
-0.23157722 0.025082378 0.060799323 -0.14618698 -0.11080855 0.054568365 -0.42111692 0.022380797
0.053676303 -0.29027557 0.009618051 -0.40877834 0.07459156 -0.057744253 -0.20937249 -0.06309849
-0.013831807 0.34566742 -0.048636332 0.16718182 0.17165431 -0.00019844736 -0.041300092 0.23439065
-0.07923301 -0.03761637 0.24643725 0.007143914 0.08245469 0.18385783 0.12451036 0.048403826
0.105089955 -0.050433055 0.020774506 0.14126143 0.11434608 -0.018363895 -0.02702032 -0.18992953
0.08785246 0.038785074 -0.1601936 0.0017609928 0.2724569 0.14552687 0.027447434 0.05170419
-0.32217982 0.024409112 -0.3059661 0.17677614 0.07516567 0.07498626 -0.17948997 0.027273428
-0.27019474 0.042189352 -0.09310871 0.2812308 0.104472615 0.10166762 0.052675407 -0.9894368
0.01694426 -0.21032436 0.10102433 -0.023914795 0.03612567 -0.24102761 0.020900656 0.251283
-0.20755601 0.11479474 -0.21919996 -0.04810406 -0.020187352 -0.39672738 0.094139196 0.055744816
0.5003413 0.11483922 0.021569839 0.100206465 -0.4089882 -0.04913321 0.10561039 -0.7392138
0.025688801 0.0658731 -0.15492597 0.030541988 -0.36176407 -0.22672942 0.08432683 0.22680187
-0.26580697 0.06655399 0.35643744 0.0037735044 0.053181957 0.5341154 -0.025617458 0.02408025
0.07502308 -1.3360021 0.014557933 -0.41861308 -0.08784163 -0.07469084 -0.14642121 0.02211474
0.0867819 0.089371964 -0.08922997 -0.17188235 0.22813141 0.05285804 0.08898472 0.2110318
-0.06483682 0.04037931 0.22638738 0.064701065 -0.030554138 -0.49836922 -0.0676458 0.07580445
-0.32103896 0.0802148 0.07939021 -0.038360987 -0.38120562 0.020890359 -0.0051263887 -0.20131525
0.12370741 -0.07951146 -0.07809841 0.03487788 0.24855117 0.13569011 0.018618202 0.3195476
0.16943417 0.15541087 -0.43067634 0.030321859 -0.046207402 0.07658786 -0.4288268 0.029401256
-0.3845346 -0.022491628 -0.06973777 -0.37351346 0.10158358 0.109564416 0.27696618 0.11304089
0.14152855 0.1451058 -0.177124 -0.04319201 0.0934034 -0.0095164515 0.027081087 0.59397006
0.0120561775 0.025290772 -0.09181953 0.03127034 -0.2060479 -0.12441922 -0.0130956825 0.011277606

input_network.0.bias f4 [64]
00000000: ebfe 61be 7493 9abe 0e75 5b3e 872c edbe
00000010: 7649 d03d 7d90 87be 1c1c 0ebf 56f4 58be
00000020: 03a8 8cbe 4f57 893e faa0 c43c 5315 75be
00000030: 6cd8 42be cffc 9ebe c5e0 11bf 37e4 88be
00000040: c56f d5be 0265 b2be faea af3e 411a cabd
00000050: ba81 5abe 07eb e6be 1e26 bd3e f50a 1abe
00000060: 8c39 2bbf 0054 97be 0201 a73c 4252 65bd
00000070: 7e55 f9be 3949 d43d 3476 4abd 1f44 783e
00000080: a868 abbe e33f 30bf e46b e53e 22e8 e9bd
00000090: 6a1a 723e 6d94 afbe ba5c 4e3d 5195 e7bc
000000a0: 4302 423d 1677 b33e 9415 d93e 3978 06bf
000000b0: a899 cfbd dde1 053e 3b4d 3c3d 824e 9a3e
000000c0: d13b 883e 2769 50be dee5 7a3e 3b21 f93d
000000d0: 5b25 2a3d e5cc a5be 5d40 01be 9997 49be
000000e0: c62c 823e f1db d63e 92a8 fcbd 300c e5be
000000f0: 4ed9 59be ffe8 e9bc 198e b3be 16b6 f0bc
-0.220699 -0.30190623 0.21431372 -0.46323034 0.101702616 -0.26477423 -0.5551164 -0.21186957
-0.27471933 0.26824424 0.02400254 -0.23933916 -0.19027871 -0.31052253 -0.56983596 -0.26736614
-0.41686836 -0.34842688 0.3435896 -0.09868289 -0.2133855 -0.45101187 0.36943144 -0.15043242
-0.66884685 -0.29556274 0.020386223 -0.05598665 -0.48698038 0.103655286 -0.049429134 0.24244736
-0.33478284 -0.68847483 0.44808877 -0.11421229 0.23642889 -0.34292927 0.0503814 -0.028269442
0.04736544 0.35051793 0.42399275 -0.52527195 -0.101367295 0.13074441 0.04597209 0.30138022
0.26608136 -0.20352612 0.2450175 0.12164541 0.04153953 -0.32382885 -0.12622209 -0.19686736
0.25424784 0.41964677 -0.1233684 -0.4473586 -0.21274301 -0.028553484 -0.3506935 -0.0293837

input_network.1.weight f4 [64]
00000000: 852d 723e 5b4a 513e 354f a23e b6df a63e
00000010: bc44 953e 7896 6a3e 79da 933e d0b6 4e3e
00000020: 49ba 2f3e 2a6c 113f 2b42 883e 42ad b63e
00000030: a362 833e e4fa 8b3e d922 793e 0c35 683e
00000040: 0396 713e 729c 7e3e 4cea 703e b5f9 533e
00000050: 30ae 8e3e f94d 653e 69a8 de3e 1068 683e
00000060: a4a7 943e 5d91 903e c2d8 c63e b549 853e
00000070: 0c74 813e 2217 963e ed56 8d3e 5ba9 fc3e
00000080: df3f 033f c5b2 633e 130c 853e c951 503e
00000090: d3f9 fa3e ef6e 853e af9b ca3e 4e9f 063f
000000a0: 1345 b83e 804c 023f 075a 7c3e 132b a23e
000000b0: b508 913e c937 813e 7d13 8c3e 7ea0 273f
000000c0: 4610 d63e a8a9 763e 03db 903e 2e6b 783e
000000d0: 1ba5 863e b3bd b63e 5d71 293f e1d8 603e
000000e0: 1937 aa3e 70ac 273f abaf a23e d83f 5c3e
000000f0: b269 5b3e 1f7b 123f 459b b83e 90aa ae3e
0.23650177 0.2043852 0.31701055 0.32592553 0.29154003 0.22908962 0.2887762 0.20186925
0.17160906 0.5680567 0.26612982 0.3567906 0.2566119 0.27339852 0.243297 0.22676486
0.23592381 0.24864367 0.23526877 0.20700724 0.2786727 0.22393025 0.43487862 0.22695947
0.2903415 0.28235903 0.38837248 0.26032797 0.2528385 0.29314524 0.27605382 0.49347958
0.51269335 0.22236164 0.25985774 0.20343699 0.49018726 0.26061198 0.39571902 0.5258683
0.359902 0.5089798 0.24643718 0.31673488 0.28326955 0.25237873 0.27358618 0.65479267
0.4180929 0.24088156 0.28292093 0.24259636 0.2629784 0.35691604 0.66188604 0.21957733
0.3324516 0.65497494 0.3177465 0.2150873 0.21427038 0.5721912 0.3605596 0.34114504

input_network.1.bias f4 [64]
00000000: 1a69 cabd 03ba fbbd 48ad 96bd c71f 27bd
00000010: 5a97 2ebd 885e a6bd f45c 2cbe 317d 05be
00000020: d74d 1bbe a116 8b3d 352a a1bd 2335 efbd
00000030: aee2 adbd f317 0fbe f867 04be 3a76 18be
00000040: 7b4e c4bd 3696 79bd 830c 8cbd d799 dcbd
00000050: b650 f9bc 6814 b4bd 01f9 1d3b 24ba 06be
00000060: 4cce 11bd fb93 17be a9c6 60bd 016e 0e3c
00000070: cbba b1bd 9a17 9cbd dfc8 dd3c eee8 24bd
00000080: 9de8 69bd 6cd5 15be 0040 5bbd ba70 e1bd
00000090: 86ff b83a 8b46 13be 7418 f4bd fd23 56bd
000000a0: e0ef b2bd ffa9 4a3d 71cb 16bc ae1b 11be
000000b0: 60ae dfbd b32e 1bbe d960 14be 29af 193c
000000c0: 8ccc b3bb 25b6 67bd 5a79 82ba 3075 afbd
000000d0: 080b e1bd 108a ddbd 7ab6 8b3d 16f3 05be
000000e0: 4dce 10bd 9882 8a3d 688e 92bd b35e 33be
000000f0: 69bd afbd 5153 67bd f34f fdbd d56f 2cbd
-0.09883328 -0.12291338 -0.073572695 -0.04080179 -0.04262481 -0.08123499 -0.16832334 -0.13036038
-0.15166412 0.067914255 -0.078693785 -0.11680057 -0.08490501 -0.1397398 -0.12930286 -0.1488885
-0.095852815 -0.060934268 -0.06838324 -0.1077153 -0.030433994 -0.08792955 0.0024104717 -0.13156945
-0.03559713 -0.14802544 -0.054876957 0.008693219 -0.08678206 -0.07621689 0.027073322 -0.0402612
-0.057106603 -0.14632195 -0.053527832 -0.11007829 0.0014114238 -0.14382379 -0.119187266 -0.052280415
-0.08737159 0.049478527 -0.009203778 -0.14170715 -0.10921931 -0.15154533 -0.1449007 0.00938014
-0.0054870304 -0.05657019 -0.0009954378 -0.085672736 -0.10988432 -0.10817349 0.06821914 -0.13081011
-0.035352994 0.0676319 -0.07156068 -0.17516594 -0.08581049 -0.05647594 -0.12368765 -0.04209884

input_network.3.weight f4 [64, 64]
00000000: 9576 0d3d 931b 053d 21d1 893d 32ef 7fbb
00000010: b02d 923b d647 963c f131 d03b 98e2 353d
00000020: b0e8 fc3c 1540 913d 0b29 233d 9c3e c6bc
00000030: 3676 103d 28f3 96bc cf2b 853c 3e20 cabc
00000040: da76 00bc 6367 f03a e4dd eb3c 250a 053d
00000050: a145 f2bc f797 ab3c 72a0 993d b7df bf3c
00000060: a195 fa3c 5017 923c 9c1a e5bc 0b95 e93b
00000070: 3816 fa3a 4d44 54bb 5038 84bc a595 b53d
00000080: eb79 9fbd ec87 343d a695 07bd 6b43 b13c
00000090: 590a e03c 2591 02bc cb22 06bd f31b 8cbd
000000a0: 8be6 963c fdc4 123e 19cd ecbb 9339 423d
000000b0: 37d4 87bc 5b48 19bd 2919 823c 7ed8 f63d
000000c0: cd79 af3d c146 ad3c c6ad 773d 6d8f 1c3c
000000d0: 78d9 edbc c30b a63c 4ebc 193d dbd2 3b3d
000000e0: 62e7 ab3c 31cd c13d 96c1 14bc b7e7 1dbb
000000f0: e781 9b3b a305 b0bd b76d 603d a7c3 093d
00000100: da21 0dbd f165 21bb 2f7d 04bd 14e4 e1bc
00000110: f4a3 413c ea2e 003c 4f6a 003c e4e7 683c
00000120: 5309 de3c 3c42 edbd 62e3 babc f741 853d
00000130: 1246 11bb b098 573c 5f62 d83b 609d cf3b
00000140: 4d2d 37bd 98f7 fb3c 9939 463d 766e d83b
00000150: 588e 813c fe12 aeba 9029 6bbd 6c3b 69bd
00000160: 7d96 943c 4601 0a3d 4946 72bd 7f25 44bd
00000170: f940 003d f8ae 4c3d 7b42 3cbc 024c 99bd
00000180: bead 083e c36f a13c 5385 6dbd ec20 203d
00000190: d1e2 9dbd 3b85 96bb a122 a73d b6f2 083e
000001a0: 9da2 1138 b2c3 2bbe 9503 6b3c 5657 2cbc
000001b0: c3b4 dc3c 82fe 2b3c 6bb7 64bc 7c0c dcbd
000001c0: 225a 59bd d9bc 293d 4903 b53c 833e 45bc
000001d0: 76a1 263d 93b3 4d3d 9b22 c7bd 878c 3bbd
000001e0: 5cb1 7aba 6ae1 3dbe 59eb 933d a509 453c
000001f0: c16f 3f3c c8ca f63d e57f 7ebb 3a51 43bd
00000200: 6cc3 663c 4af2 14ba 5ae6 23bd 4f80 aa3d
00000210: 43aa 1b3c 3442 ac3b b486 b43d 2b2a 60bc
00000220: fa0a 62bc 6437 2f3e b9a0 923d 986b 313d
00000230: 1d5c 283d ba2e b93c caf6 093d 464c 3b3d
00000240: f5c7 ea3a cf33 e93c 1e20 653c 999c 453d
00000250: fd30 edbc c4f0 243c a150 bcba 90ad d03c
00000260: 12d5 d83d 3715 153d bf4a 42bd 8a0f b13d
00000270: e625 c73c 8281 463d 79ac 033d 0ecf 2dbb
00000280: 8e2d 9dbd cd3d 7c3d 43e3 b8bc 6de8 c43c
00000290: c656 f7bc bc8a 973b 6542 cbbd 4672 33bd
000002a0: 37b8 37bd 0a4a 713e e437 c9bc 18b1 d73d
000002b0: 97a6 603a d9e6 3abd 357b e83c 82cb a9bd
000002c0: 176f 9c3a 4137 1e3d e2a8 d3b8 aae7 e93c
000002d0: ff13 83bd 08ce 963c 4978 173c e9fd 2a3c
000002e0: 0334 023e 6e44 adbc 910d af3b 97f8 803d
000002f0: d934 4bbb b9e4 f5bd c6eb da3d 7606 a13b
00000300: 6710 4c3b 52a5 68bd 7e9b 043d 7bf7 b73a
00000310: 1e49 dbbc 0bab 153b f560 b6bc 1073 d53b
00000320: 5587 d4bc f472 493d c2e3 2ebd 6f3d 313d
00000330: 004f 04bc 5cf6 69bd 0c60 f23c dd09 513c
00000340: 3d19 50bd 8005 303a f6e2 7d3d e091 67bd
00000350: 6568 b3bb 1902 5d3c 0151 003e 754e a93d
00000360: 9e14 aebc e33b 463d f3da b63c 36f0 3d3d
00000370: a4b7 b43b 2075 4f3d d0b1 5d3c 3336 733d
00000380: 0f39 f7bd 9cfa 45bd 2235 ca3d 7e05 343c
00000390: cd06 b53d af78 573c 5645 81bd e7ff ecbd
000003a0: 7797 293d 4126 ea3b 73fe a13d fe30 9dbd
000003b0: 08c5 e13c bb48 c5bb 744e 58bd a52e e63c
000003c0: 2859 fa3d f789 aa3b 25c9 993d 3760 793d
000003d0: d91c b9bb 1a1e 2c3d 532a 0c3e 5ebc 0b3c
000003e0: 2286 1b3c bfee 843e b93a 143d d999 2cbd
000003f0: a5a6 69bc c3fb ddbd a7fb 01bd 1730 3c3d
0.034536917 0.032497 0.06729341 -0.0039052484 0.004461013 0.0183448 0.0063536097 0.04440555
0.030872673 0.07092301 0.039834064 -0.024199776 0.035268985 -0.018426493 0.016256241 -0.024673577
-0.007840836 0.0018341359 0.02879233 0.032480378 -0.029574217 0.020946486 0.07501306 0.023422105
0.030588927 0.017833382 -0.02796679 0.007128363 0.0019080108 -0.0032389343 -0.016140133 0.08866433
-0.07786926 0.044074938 -0.0331017 0.021638593 0.027348684 -0.007969175 -0.032748025 -0.068412684
0.018420478 0.14332958 -0.007226598 0.04741819 -0.016580684 -0.03742252 0.015881138 0.12053011
0.085681535 0.021151902 0.060468458 0.00955568 -0.029034361 0.02026928 0.037533097 0.045855384
0.020984355 0.09462965 -0.009079358 -0.0024094412 0.00474571 -0.08594825 0.054792132 0.033633854
-0.03445611 -0.0024627412 -0.032345947 -0.027574576 0.011818875 0.007823685 0.007837846 0.014215443
0.027104056 -0.11584899 -0.022813503 0.065067224 -0.002216701 0.013158962 0.0066035236 0.0063358992
-0.044720937 0.03075771 0.048394773 0.006604965 0.015814945 -0.0013280807 -0.057412684 -0.056941435
0.018138165 0.03369262 -0.05914906 -0.04788732 0.031311963 0.04997155 -0.01149046 -0.074852005
0.13347527 0.019706612 -0.057988476 0.039093897 -0.077092774 -0.004593519 0.08160902 0.13373837
3.472214e-05 -0.1677387 0.014344116 -0.010518869 0.026941663 0.010497691 -0.013959746 -0.10744569
-0.053064473 0.041439865 0.022096293 -0.01203883 0.040681325 0.050220083 -0.09723397 -0.045788314
-0.0009563172 -0.1854302 0.072226234 0.012026225 0.011684359 0.12050396 -0.0038833555 -0.047684886
0.014084678 -0.0005681856 -0.040014602 0.08325254 0.009501043 0.0052569155 0.08814755 -0.013681929
-0.013796562 0.17110974 0.07159562 0.0433155 0.04110347 0.022605289 0.033682622 0.045727037
0.0017912375 0.028467087 0.013984708 0.048245046 -0.028954023 0.010067169 -0.0014367291 0.025473386
0.10587515 0.036397185 -0.047434565 0.08645542 0.024310064 0.048463352 0.032146905 -0.002652112
-0.076747045 0.061582375 -0.022569304 0.02403661 -0.030192744 0.0046246927 -0.09924773 -0.04381015
-0.044853415 0.235634 -0.024562784 0.10531825 0.00085697457 -0.04563031 0.028379062 -0.08290769
0.0011934963 0.038626913 -0.00010092721 0.028552849 -0.06400298 0.01840879 0.009244987 0.010436513
0.12715153 -0.021150794 0.0053421934 0.06297415 -0.0031006841 -0.12006516 0.106895015 0.0049141003
0.0031137706 -0.056798287 0.03237485 0.0014035547 -0.026768263 0.0022837545 -0.02226303 0.0065139607
-0.025943438 0.049181893 -0.042697676 0.04327148 -0.008075476 -0.057119712 0.029586814 0.012758699
-0.05080532 0.0006714687 0.061984025 -0.0565356 -0.0054750913 0.01348927 0.125309 0.082669176
-0.021250065 0.048396956 0.0223212 0.04637166 0.0055150557 0.05064881 0.013531163 0.05937786
-0.1207143 -0.048334703 0.098734155 0.010987638 0.08839188 0.013151332 -0.06312053 -0.11572247
0.041404214 0.0071456735 0.079098605 -0.0767536 0.027559772 -0.006020633 -0.052809194 0.028098414
0.122240365 0.005204435 0.075090684 0.060882773 -0.005649191 0.042020895 0.1368802 0.008528797
0.009492429 0.259634 0.036188815 -0.042138908 -0.014260923 -0.10839035 -0.031734135 0.0459443

input_network.3.bias f4 [64]
00000000: b87b 5c3c 2d1c 163d 453b 5a3d 6c0d 613c
00000010: c4df dfba 7138 d03b dd42 e63c 53a0 463c
00000020: 184e 7fbd da56 9b3c 4796 8eba 8b43 c93c
00000030: bd6a 263d 2480 5cbc 597c 6a3d 5061 ae3c
00000040: 02c2 06ba 47ab 8bbd dea4 f73b af9d cb3d
00000050: 71d9 4f3d c5b9 96bd 2138 1abc fbed 673d
00000060: 17fe eabd f0b9 5cbd 7f5c 2d3d 482b 073d
00000070: 7ebe 4c3c 70d4 38bd 9c8a 88bb ad82 05bd
00000080: 65b9 5b3d e8fd 43bd 839a b1bc df7f 343c
00000090: e469 a13b b8d2 513d 211a b73c 31a7 053d
000000a0: df8e ccbc 1dec f03c ad46 44bb 94d4 2cbc
000000b0: 2193 c63c c3c7 b53c 2ada 5b3c 0496 0c3c
000000c0: 4c16 c0bd ea66 ab3d 15ee e5ba 7141 723d
000000d0: 255d c43c d04d f63c 43a0 b73c fdd7 3a3d
000000e0: 33b4 adbc 8b84 6cbd 5609 453d 1d6c e73c
000000f0: 224e 463d 9071 aabc 6214 82bd c53b 2fbd
0.013457231 0.036647964 0.05327918 0.01373611 -0.0017080237 0.0063543846 0.028108055 0.012123185
-0.062330335 0.018962312 -0.0010878526 0.02456834 0.040629137 -0.0134582855 0.057247493 0.021286637
-0.0005140604 -0.06819778 0.0075574955 0.09942185 0.050744478 -0.073596515 -0.009412796 0.05662344
-0.11474245 -0.05388826 0.04232454 0.03300026 0.012496589 -0.04512447 -0.004166914 -0.032595325
0.053643603 -0.047849566 -0.021680122 0.011016815 0.004925953 0.051226348 0.022351326 0.03263015
-0.02497047 0.029409463 -0.0029949353 -0.010548729 0.024240078 0.02218998 0.013418714 0.008580688
-0.09379253 0.08369239 -0.0017542267 0.05914444 0.023970196 0.0300664 0.022415286 0.04561614
-0.02120409 -0.05774359 0.048104607 0.028249795 0.048414357 -0.020806104 -0.06351544 -0.04278161

input_network.4.weight f4 [64]
00000000: 665f f93d cb5f 7e3e 4379 9a3e 6357 ab3e
00000010: 5628 e53e a7c5 3a3e 947f 343e b969 c03e
00000020: eae8 c83e 3e80 0d3e 5c58 a73e 3d21 9b3e
00000030: 9bb1 9f3e f897 603e a483 b53e 0ef5 213f
00000040: a7a8 e53e d4f0 473f 736c 053f e250 e73e
00000050: a557 d43e 6b90 563f 74d1 2f3e a3c8 453e
00000060: 5195 143f 6fdf 053f a802 133e 1584 b03e
00000070: 0da2 7f3e 4ad1 d13e f52a 9b3e 8c11 243e
00000080: aa86 233e 192a 033f 6376 d93e 8391 173e
00000090: a82f 263e c0f4 6a3e 41d9 203e fcba 533e
000000a0: 13a1 5a3e f273 1d3e 280b 843e d3b0 b23e
000000b0: 42c9 4a3e 93ce 223e 5dcf 283e fcbd 153e
000000c0: fbba e43e 906d c53e 2b79 ad3e 5a4f 573e
000000d0: 24f0 3a3e bebd 2b3e 4dd3 643e 1cf4 033f
000000e0: f310 a13e 638c f83e 9a2c 873e 7e6b 0c3e
000000f0: c809 ad3e a758 133f f54b 053f 4d09 c53e
0.12176399 0.2484123 0.3017064 0.33465108 0.44757336 0.18239461 0.17626792 0.3758066
0.392402 0.13818452 0.326846 0.30298796 0.3119019 0.21932971 0.35451996 0.6326455
0.44855234 0.7810185 0.52118605 0.45178896 0.41473117 0.83814114 0.17169744 0.19314818
0.5804034 0.5229406 0.14356482 0.3447577 0.24964161 0.40979987 0.3030621 0.16022319
0.15969339 0.5123611 0.42473134 0.14801602 0.16229117 0.22944927 0.15707876 0.20676798
0.21350507 0.15376261 0.25789762 0.3490053 0.19803336 0.15899114 0.16485353 0.14623255
0.44673905 0.38560152 0.33881506 0.21026364 0.18255669 0.167716 0.2234623 0.51544356
0.31458244 0.48544607 0.26401216 0.1371288 0.33796525 0.5755715 0.52069026 0.38483658

input_network.4.bias f4 [64]
00000000: d1cd af3b 7f49 d8bc dcec f7bb 5db8 01bc
00000010: 3602 46bd 8514 23be 7762 1abe e96d 333d
00000020: 6c2b 8dbd be69 2bbe 10fc cebd 0529 163d
00000030: 1b96 e4bd ad28 ffbc f714 0abd 8012 abbd
00000040: 4ffe e6bc dd7c cb3c d66b 213b aa46 e2bb
00000050: 8e2d 563b 2112 8abc 0067 28be b9b1 afbc
00000060: 1d7f 33bd a60e 593d 49f2 41be d562 30bd
00000070: 9c3a cfbd 6deb 103c 3acf 59bc 2059 30be
00000080: 422f e3bd 1750 bfbc 6f2a 563d 21fa 97bd
00000090: 217e fcbd b4a6 3abd 3cf7 f4bd 9eb8 15be
000000a0: 00ca 92bc c633 3ebe 65ac 16bd 64d7 cbbc
000000b0: 36a3 e7bc a2d2 14be b0d6 17be 2494 0cbe
000000c0: 6db5 c2bc 1ece 65bb 9f55 42bd 3767 cfbd
000000d0: a03a 00be 40d3 0bbe 3fde c9bd 21c2 c1bd
000000e0: f62c babc 737f 753d bba4 c9bd 0b7d 1dbe
000000f0: 738c 44bd 9b19 803c 2135 243d 8c59 adbd
0.0053651114 -0.026402233 -0.0075660776 -0.007917491 -0.048341952 -0.15925796 -0.15076624 0.04380599
-0.06893048 -0.16739556 -0.10106671 0.036660213 -0.11161443 -0.031147325 -0.0337114 -0.08353138
-0.028197436 0.024839813 0.0024630926 -0.0069053965 0.0032680961 -0.016854348 -0.16445541 -0.02144705
-0.043822397 0.052992485 -0.1894008 -0.043063004 -0.10118601 0.008845192 -0.013294036 -0.17221498
-0.11092998 -0.02335362 0.05228656 -0.07420755 -0.12328745 -0.045569137 -0.11961219 -0.14621207
-0.017918587 -0.18574437 -0.036785502 -0.02488298 -0.028276067 -0.14533475 -0.1482799 -0.13728386
-0.023768151 -0.0035065482 -0.047444936 -0.101271085 -0.12522364 -0.13654804 -0.09856843 -0.09460855
-0.022726517 0.059936 -0.09845873 -0.15379731 -0.047985505 0.01563721 0.04008973 -0.08464345

input_network.6.weight f4 [64, 64]
00000000: 50cc 7c3c 807f 87bb a981 cabb b086 873c
00000010: 6bd5 69bd 99fa 003b f2c3 433c e8d7 e23c
00000020: e96c b43c 574f 22bc e974 a0bc bd93 2b3d
00000030: a799 54bd b831 a8bc ea58 d1bc b08f 46bd
00000040: bd5a ebbb cc1c 4ebd 931f 72bd 7ef8 bcbd
00000050: 8624 61bd 7c9a a33d 010a c23c 70cb 1bbd
00000060: 756d 9abd 5757 3b3b d174 07bd 897f a3bc
00000070: 9ab4 76bd be55 563d 55d9 b3bc 513e 2abc
00000080: 09e9 26bd 1974 953d 47e7 f93c c3b6 17bc
00000090: 6b0c f03c cedc 94bc d926 40bc 06be 22bc
000000a0: 3491 83bc 0f52 4ebd b416 b4bc 0e6c b6bc
000000b0: 609e 91ba 4af4 1cbc be3f 253c f091 0bbd
000000c0: de8f 843c b4e1 3bbd 3b55 15bd 684c bb3b
000000d0: c2b8 2dbd 6198 a3bc 8fec ffbb 231b 7bbc
000000e0: a684 28bc 129a 7e3d abe8 073d 1536 e6bc
000000f0: a4b3 66bd c10f 42ba d84f 26bc 74d8 7fbd
00000100: daf2 4cbd d920 373d c3bb e63c a34f 03be
00000110: ca25 4e3d c17b 893c e3f4 2bbc 27e1 433d
00000120: 7722 513d e225 70bc 05b7 c6bb c523 303e
00000130: e721 24be 78d3 613d 905b c03d bad4 06be
00000140: f5ce 78bd 8427 d33d e457 023e c0f8 5d3d
00000150: 1199 22be a1bf 033d c7ff b13c 49f9 b63d
00000160: 508b 533d 889c aa3e 33e2 cdbb d88c 923d
00000170: 4870 c7bd 4cdb 473e 1f32 8c3d f8c8 74bc
00000180: 2505 ffbb 1721 12bc ecab e53d fd39 85bb
00000190: 5a6f 8e3c e692 91bd f65a 34bd 29a8 4f3c
000001a0: f86b 9d3d 00a2 57bd ba3d 4cbc 46f1 973d
000001b0: 5d12 123d 4321 60bc caec ab3c 5b7c bebb
000001c0: ac83 0fbd d17e 173d ff71 1cbe 6d8e 29bd
000001d0: da0a fbbb 3557 573d 2c4b e4bc a3bc 0fbe
000001e0: 7c0c 35bd 0fcb 413e c333 623b 3b85 a0bc
000001f0: f5ca 8abd bb39 3b3e 15ae 943e afd1 ac3c
00000200: a435 d53d d8d2 87bd b29f 4cbd dfc4 8c3e
00000210: 82fb bbbc a4c8 1c3a efd1 35bd 4a65 193e
00000220: 91ed ae3d b82f 473c fb78 363d d9df 903d
00000230: 94af 93bd 7f23 d53b 3f97 b23b 7bdd 6dbd
00000240: c86b 85bd 556c be3d 689d bebd edd1 adbd
00000250: b598 a73e a76c cebc 7fe4 4d3c 20e9 023d
00000260: 3731 cebd 0e25 fb3b 0778 d33b 8dfb 233d
00000270: ec5b e8bc 3faa 143d f187 9ebd 326b 053c
00000280: e89d 7a3c e3c8 133c c9e7 6e3d dee3 7e3b
00000290: 359f 50bc 166e f73d 8f4e bf3b 24f2 01bc
000002a0: 6c32 c83c eddd 0ebc 6bc1 af3c 4816 b3bd
000002b0: a4ed e2bc ed50 f73c d4b6 b13c cab3 943b
000002c0: ec9b a43d f913 b9bd 52c7 7e3e 49d8 6a3c
000002d0: 3e95 48bc d02a 2e3c 2c72 86bd 764d f4bd
000002e0: 0016 95bd 98c6 c13c 73ff f1bc 6819 5b3b
000002f0: 9340 5d3e ee0d cdbc a943 46bd 8449 10bd
00000300: 10a1 d43c 52c9 41bd 0a26 8cbd 6249 5f3d
00000310: 4381 20be 7f2d e0ba 9f7f f73c 382a 5c3d
00000320: d62e 183d 548a d03b 4faf 523c 3587 743d
00000330: fdc4 04be d496 c33d f95b 9fbd 5d2e ff3d
00000340: 56c7 31bd 9bd6 663d b075 61be 39bf c2bd
00000350: fc21 ba3d 6532 89be 7689 103c 853c 803d
00000360: a4d4 07be 8269 733d f5bc 7a3c 8a8f 65bd
00000370: 5200 04be 54c3 8ebc 5c05 67bd debe abb9
00000380: d406 08bd eff7 1cbd 93cb 353e aad5 043d
00000390: 207f 30bc 1c26 c9bc 1279 843b 6511 6fbb
000003a0: 362a c53d 727a 3d3c ae98 853d f6c0 e8bd
000003b0: 533d c43d 99c6 b7bb 4db3 07bd 2686 763c
000003c0: 9499 b7bd 5725 65bd d157 f63d cfce 34bd
000003d0: 154d 2b3d 52f3 6f3c ba20 8bbd 5adf bfbb
000003e0: 7371 dbbc a50c 833e 93d6 75bd 595b 383d
000003f0: 702e 7d3d b5ab dcbd 0a76 873c bddd 023c
0.015429571 -0.004135072 -0.0061800075 0.016543716 -0.057088297 0.0019680618 0.0119485725 0.027690843
0.022024589 -0.009906611 -0.019586997 0.04188894 -0.051904347 -0.02053152 -0.025555093 -0.048476875
-0.0071824477 -0.05032043 -0.059112143 -0.092270836 -0.054966472 0.0798845 0.02368641 -0.03803581
-0.075404085 0.0028585994 -0.03307039 -0.019958274 -0.06023083 0.052327864 -0.021954218 -0.010390834
-0.040749583 0.072975345 0.03050579 -0.009259882 0.029302796 -0.018171694 -0.011728012 -0.009933
-0.01606045 -0.050371226 -0.021983482 -0.022268321 -0.0011109821 -0.009579727 0.010085998 -0.034074724
0.016181882 -0.045869544 -0.036458235 0.0057158954 -0.042412527 -0.01997012 -0.0078101824 -0.015326294
-0.010285532 0.06215865 0.033180874 -0.02810196 -0.056323662 -0.000740286 -0.010150872 -0.062462285
-0.05003629 0.04470906 0.028165704 -0.12823348 0.050329007 0.016782643 -0.010495397 0.047822144
0.05105826 -0.0146574695 -0.006064298 0.17201145 -0.16028558 0.055133313 0.09392464 -0.13167086
-0.060744245 0.103102714 0.1272884 0.054192305 -0.15878703 0.032165173 0.02172841 0.08934266
0.05164653 0.3332255 -0.0062830686 0.0715577 -0.09738213 0.19517249 0.06845497 -0.014940493
-0.0077825957 -0.008919022 0.11214432 -0.0040657506 0.017387081 -0.07108097 -0.04403206 0.01267437
0.07686609 -0.05264473 -0.012465889 0.07419066 0.035662044 -0.013679805 0.020986933 -0.005813164
-0.03503768 0.036986176 -0.15277861 -0.041395593 -0.0076612057 0.0525734 -0.027867876 -0.14036803
-0.04420136 0.18925117 0.0034515716 -0.01959478 -0.06776992 0.18283741 0.29039064 0.021096079
0.10410622 -0.06632012 -0.049956985 0.2749395 -0.022947077 0.00059808255 -0.04438966 0.14980045
0.08541406 0.012157373 0.04454897 0.070739456 -0.07211223 0.0065044756 0.005450159 -0.05807255
-0.06514698 0.092980064 -0.093073666 -0.08487306 0.32733694 -0.025198294 0.012566685 0.031960607
-0.10067981 0.0076643294 0.0064535174 0.04003482 -0.028364144 0.03629517 -0.077407725 0.008143233
0.015296437 0.009020063 0.058326516 0.0038893144 -0.01273327 0.12081544 0.0058382223 -0.007931266
0.024438106 -0.008719903 0.021454534 -0.08744484 -0.027701207 0.030189956 0.021693625 0.004538034
0.08037552 -0.090370126 0.24880722 0.014333793 -0.012242613 0.0106303245 -0.06564745 -0.11928837
-0.07279587 0.023654267 -0.029540753 0.0033431891 0.21606664 -0.025031056 -0.04840437 -0.03522636
0.025955707 -0.047311135 -0.06843193 0.054513343 -0.1567431 -0.0017103403 0.030212222 0.0537512
0.03715404 0.0063641462 0.01285918 0.059699256 -0.1296577 0.095502526 -0.07781214 0.12460015
-0.043402992 0.056357007 -0.2201755 -0.09509129 0.09088513 -0.2679626 0.008821836 0.06261543
-0.1326471 0.059426792 0.01530384 -0.056045093 -0.12890747 -0.017427124 -0.056401595 -0.0003275787
-0.033209637 -0.038322385 0.17753439 0.03243033 -0.010772496 -0.024554305 0.004042753 -0.0036478874
0.09627192 0.011564838 0.06523262 -0.113649294 0.09582009 -0.0056083915 -0.03312998 0.015046632
-0.089648396 -0.055943813 0.120284684 -0.04414254 0.041821558 0.014645414 -0.067933515 -0.005855483
-0.026787495 0.25595585 -0.060019087 0.04500899 0.061811864 -0.10774938 0.016535778 0.007987437

input_network.6.bias f4 [64]
00000000: 914d 983b 7b36 823d f3f6 0f3d e819 633c
00000010: 5d16 10bd 5323 093e ce0c 18bc 1b36 66bd
00000020: 7de8 763b a822 d3bc 3a54 b7bc 361e 373b
00000030: 2da2 4fbd aeab 0fbd 5566 23bd 400f 00bd
00000040: eb9e b9bc 2d8b 20bd 9130 78bc b755 573e
00000050: cf77 813d d988 ac3d 7a01 23bd 3921 29bd
00000060: 045a 2bbd 97f1 62bd 2dfd 14bd 8d3a f0bc
00000070: 1603 52bd 006d 03bd 2b36 183e da1d 123c
00000080: 99d7 53ba 7de0 3b3c e732 c8bc 94ed c2bc
00000090: 4c82 e9bc 4550 35bd d668 663d d91f c1bc
000000a0: 3936 07bd 4848 eebc 030c 05bd 3153 d1bc
000000b0: 9116 5dbc 03b6 edbc 8e4c 64bd d0f5 483c
000000c0: b86b 87bc ad47 5fbc dee8 7a3c 1c7b 3bbd
000000d0: a13c 4cbd 4f5e 04bd d24a db3c 7384 dfbc
000000e0: c47b 43bd 0b5a 8abc 648b 64bc 5b64 7ebd
000000f0: d7ab a2bc 75aa b4bc 7a55 d8bb 9349 2dbc
0.0046479185 0.063580476 0.03514762 0.013861157 -0.035177577 0.13392381 -0.009280397 -0.056203943
0.0037675195 -0.025773361 -0.02237903 0.002794159 -0.050691772 -0.035075836 -0.039892513 -0.031264544
-0.022658786 -0.03919523 -0.015148298 0.21028791 0.0632168 0.08424539 -0.03979633 -0.04129145
-0.041833892 -0.05540618 -0.03637426 -0.029324794 -0.051272474 -0.032086372 0.14864413 0.00891825
-0.0008081138 0.011467096 -0.024438335 -0.023794927 -0.028504513 -0.044266004 0.056252323 -0.023574756
-0.033010695 -0.0290872 -0.03248216 -0.025552364 -0.01349415 -0.029017454 -0.05573707 0.0122656375
-0.016530856 -0.013627929 0.015314309 -0.045771703 -0.049862508 -0.032316502 0.026769076 -0.027284836
-0.047725454 -0.016888639 -0.013949249 -0.062107425 -0.01985733 -0.022053936 -0.0066019865 -0.0105766235

input_network.7.weight f4 [64]
00000000: d702 903e 6a29 f73f 9792 2d40 d8ac 983f
00000010: df02 b13e eea0 dc3f bd00 c93e ce9b a73e
00000020: 9556 a13e 82a8 aa3e b6a6 9e3e d9d3 903f
00000030: 9ec4 9d3e 55db 8d3e e3cc 863e 1752 dc3e
00000040: 8934 c13f eac9 8f3e f2ea 1f3f 693c d03f
00000050: 97da 5d3f e973 ca3f c8cf 923e b0ef 933e
00000060: ce4f 953e 47cf 023f e72e a33e ecee b63e
00000070: 3cd9 953e 6784 ad3e 6fd7 e33f 97ec a53f
00000080: d89a a23e 70c8 2140 a3ee 953e f621 f83e
00000090: 427f ee3e 1c36 9b3e a8b9 3940 fc07 973e
000000a0: 46a3 a53e 412e 963e 41b6 a43e 71b4 3b3f
000000b0: e904 893e 67fb a23e e169 863e 6f17 643f
000000c0: a0c7 093f 2c4d 673f c597 003f 9dc9 a03e
000000d0: 6f11 f93f 4c92 e13e f2d6 e23f 5579 a53e
000000e0: a0e1 f53e 4e4e 933e e0ca a83f 4342 7a3e
000000f0: fb4b b43f a385 b23e 99d2 ca3e d8a6 a93e
0.28127167 1.9309514 2.7120721 1.1927748 0.34572503 1.7236612 0.39258376 0.32736057
0.3151137 0.33331686 0.30986565 1.1314651 0.3081407 0.277064 0.2632819 0.4303138
1.5094157 0.28083736 0.62467873 1.6268436 0.86661667 1.5816623 0.2867415 0.28893805
0.2916245 0.5109753 0.3187172 0.35729158 0.292673 0.33890077 1.780012 1.2962826
0.3175876 2.5278587 0.29283628 0.4846341 0.46581465 0.3031472 2.9019566 0.2949828
0.3235113 0.29332164 0.321703 0.73322207 0.2676156 0.3183243 0.26252654 0.89098257
0.5382023 0.9035213 0.5023158 0.3140382 1.9458445 0.44056928 1.7721846 0.32319131
0.480237 0.2877068 1.3186913 0.2443934 1.4085687 0.34867582 0.39613798 0.33135104

input_network.7.bias f4 [64]
00000000: 8d65 4ebd 0fbf 2b3f 5b3c 673f 1b60 833e
00000010: da1d e73b 9c33 803f dd1d 443d 1c03 213b
00000020: 70cf edbc 5427 973b 28b1 c4bc 3551 ba3e
00000030: d192 92bc eedc 30bd 3f20 5a3d 7840 033d
00000040: 36fc 103f bdc0 1ebd 8c47 743e 5c75 9c3f
00000050: 616f d53e 00a6 4d3f 5dbe 2ebd ca5a 3dbc
00000060: e7ec d4bc 3294 b73e 38b8 65ba b1a5 303c
00000070: 10ca 2fbd 7282 0cba 2bd2 573f 1955 1c3f
00000080: c766 e9bc d3e9 ee3e 631e 07bd 179f cb3d
00000090: ba46 233e 4f9a a6bc b81c ac3f 8d74 8b3c
000000a0: 825b 98bb 4da5 67bd 4b12 b9bc 8195 263e
000000b0: c7a1 27bd d734 ccba 7965 2b3d 507b c33e
000000c0: 8466 e03e ff82 303e ee62 a33e 1084 20bb
000000d0: 0fd5 b03e eea0 5c3d 2f71 183f 621f a9ba
000000e0: 5a02 4f3e 31f2 1bbd 8f5b 253f 9f1e 273e
000000f0: 7b9e f03e 8dee d0bb 3fa8 823e 920e 493b
-0.050389815 0.6708841 0.9032647 0.2565926 0.007053119 1.001575 0.047880042 0.0024568504
-0.029029578 0.0046128426 -0.024010256 0.3639008 -0.017892273 -0.043179445 0.05325341 0.032043904
0.56634843 -0.03875803 0.23855418 1.2223315 0.41686538 0.8033142 -0.042662013 -0.01155729
-0.02599187 0.35855252 -0.00087631075 0.010781691 -0.04291731 -0.0005360014 0.84305066 0.6106735
-0.02849139 0.4666277 -0.032987963 0.09942453 0.15944949 -0.020337252 1.3446264 0.01702335
-0.0046495805 -0.056554127 -0.02259173 0.16267969 -0.040925767 -0.0015579712 0.04184482 0.38180017
0.43828213 0.17237471 0.31911415 -0.0024492778 0.3453755 0.053864412 0.59547704 -0.001290303
0.20215741 -0.03807277 0.6459283 0.16320275 0.4699591 -0.0063760937 0.25518987 0.003067885

edge_network.network.0.weight f4 [67, 134]
00000000: 9af9 6a3d a0f7 95be 31b7 723d b9d0 20be
00000010: e068 6fbe 2956 273e 36d7 62be 7f1e 2fbd
00000020: d9d9 483e b439 f93b 1cf5 c0bd 26d3 9c3e
00000030: 9bd3 2e3d fe3a eb3d bb14 9d3d 5f40 ebbc
00000040: 5fac 60be 53c2 903e 151a 26bd accf e23d
00000050: d00c c8bd 60d8 893e c71f c1bc 11fc 3f3e
00000060: efa0 26be a118 763d a3cc 0c3e a1de 23be
00000070: 11ec 1ebd 1b5e 8f3e 0f9a 993e 831d f1bd
00000080: 1951 9bbd ff08 d5bd 4c16 85bb b2ff 503d
00000090: a2d8 e73d 620a b03d 3714 08be e31e 02be
000000a0: 758c 7a3e e537 993d dcd1 83bd 2b2e 3dbe
000000b0: 14ac 1bbd 2ed3 353e 7a87 9d3c 7e5b 43be
000000c0: b4b5 f43d 2078 48be 2322 06be 56fc 883c
000000d0: 8b08 ff3d 852f 4ebe 1797 2abe 8e76 78be
000000e0: 68e4 be3e 675b da3c 0fa1 bcbe 4724 c8bd
000000f0: b1f8 173e 291e 35be 564f aebc 1f15 9e3e
00000100: 2d1e f33d a2db 8fbe 0b64 883c 2782 cbbc
00000110: d8ea 4a3e 0cc5 ac3e e017 323e ccdf 523e
00000120: a8e3 91be 7241 ae3e 68dd 843e 63da 173d
00000130: 43c2 733d 2300 bf3d 9a5b 50be ac45 683e
00000140: 4d2a b2be 3a29 aabb 13f2 9a3d 6999 8d3e
00000150: 5722 ddbe 444e 6cbe bc36 6ebe 622f bc3d
00000160: 3fe0 09be 1bd4 41bd 91af 7ebe 40e4 1f3e
00000170: ae09 06be d363 76be d411 d33d 31ce 21bd
00000180: 3f64 88be 4f12 9ebe c046 5d3e 7e6d c4bc
00000190: 6764 553e 59b8 0ebb c822 ff3c 94bc 41bd
000001a0: d1d4 72be bf35 543e b4b2 563e b328 8fbe
000001b0: 9202 1ebe a157 5a3c c1ed f13e a284 2cbe
000001c0: 2c9f 45bd 38dc 06be 547c 303d 5214 a2be
000001d0: e2de 143e 11c9 723e db96 25be af93 e4bd
000001e0: 472b 2f3e 257f 883e 2189 6c3d e6cc 9dbe
000001f0: 97b9 2cbd 9583 013e 95ad 223d bfee b13c
00000200: 09f5 003f a44e ff3d 4f89 d2be 34a2 19be
00000210: 24db 8d3e 5f1b bbbc 41d0 94bd 9aad 363e
00000220: 3f62 1c3d d5c0 483e 6b24 2d3c 0774 ab3d
00000230: 6ed0 df3d fa6e 1f3d aee1 95bd 00c8 a63c
00000240: e428 023e 007d a3bd 4671 723d 3a01 c1bd
00000250: 1992 f1bd 8ec9 a9bd ef07 f43c c1a3 6cbd
00000260: a8b6 d1bd 57ed bfba 846f a1bd 71b7 e73a
00000270: a4db d0bd 6fbe ce3d e427 f2bd af9f 003d
00000280: 7028 58bc 35e0 e1bd 1f16 a4ba daed 2ebe
00000290: 5359 f43c b299 19be b092 87bd 4739 dd3d
000002a0: a0f1 f23c 5da2 b83b 7447 d63c 2802 97bc
000002b0: 1d2c 01bb 3824 3c3b 4fa4 88bc b06c 1d3c
000002c0: 1aa1 42bd 70de 483c 40f6 6fbd 9f46 fd3d
000002d0: 9ea2 b8bc 3d48 353d 7caf b73d 3f9c 303e
000002e0: 7186 c43d 9808 463e 130f 7ebc e4d0 9c3d
000002f0: 729a 9bbc 13c3 fa3d 52e7 24be fe81 84bd
00000300: 57d6 583e 6c34 3ebc dfad 2bbd 5e31 513e
00000310: 6278 d43d 15cc b8bd 9ad5 d03d 58d1 b2bd
00000320: 7fee 4e3d e824 3d3e 96f1 79ba 69a5 a8be
00000330: 8fc1 7fbe eca0 66be bae4 d03d af6f 46be
00000340: fe4b 78be 7767 783d 65a0 0f3e 8cd4 a6be
00000350: 762e 3a3e a0bb 2ebe e000 323e 3b24 cf3d
00000360: d72a 4a3d 7b7a 99bd 3687 7f3e 720f 8c3d
00000370: 600c 753b 0335 883d 38ea d5bd 4820 98bc
00000380: f496 de3d 98b7 b9be a979 e93b 192c 0b3e
00000390: f097 09be 2509 f4bc ee46 973e c358 f83d
000003a0: 5a04 6e3e 5e0e 0c3c bc06 9f3b 8670 88bc
000003b0: adcc f73c 0cc7 2a3d 9140 a7bd b09a 0f3e
000003c0: 0f51 38be 7151 573e a7cb d63d 7a13 9bbc
000003d0: 01d2 a0be 460d 08bd 796b 88be b56a bb3a
000003e0: 1cff 9dbc 6b93 f0bd b73c 41be b263 86be
000003f0: c2c9 babd 7c77 853d f56b cfbc 7a88 4cb9
0.057366945 -0.29290485 0.059256736 -0.15704621 -0.2337985 0.16341461 -0.22152409 -0.042753693
0.19614352 0.0076057557 -0.09421751 0.30629843 0.04268227 0.11485861 0.0766997 -0.028717218
-0.21940754 0.28273258 -0.040552218 0.110747665 -0.09768069 0.26922894 -0.023574723 0.187485
-0.16272329 0.06008208 0.13749938 -0.16002895 -0.03879935 0.28001484 0.3000035 -0.11773207
-0.075838275 -0.104021065 -0.004061496 0.0510251 0.11320616 0.0859573 -0.13288961 -0.12707095
0.24467643 0.07481364 -0.06436512 -0.18474643 -0.038005903 0.1775634 0.01922964 -0.1907787
0.119487196 -0.19577074 -0.1309896 0.016721886 0.12452801 -0.20135315 -0.16659199 -0.24263975
0.37283635 0.026654912 -0.36841628 -0.09772544 0.14840962 -0.17687286 -0.021278065 0.3087549
0.1187099 -0.28097254 0.016649267 -0.024842335 0.19816148 0.33744085 0.1739192 0.20593184
-0.28494 0.34034306 0.2595017 0.037073504 0.059511434 0.09326198 -0.20347443 0.22682828
-0.34797898 -0.005192903 0.07565703 0.27656105 -0.43190262 -0.23076731 -0.23263067 0.09188725
-0.1346445 -0.04732142 -0.24871661 0.15614414 -0.1308963 -0.24061517 0.10306135 -0.03950328
-0.26638982 -0.30873343 0.2160902 -0.023977991 0.20839082 -0.002177736 0.031144515 -0.047298983
-0.23713996 0.20723628 0.20966607 -0.2796074 -0.15430668 0.013326556 0.47251704 -0.1684747
-0.0482475 -0.13169944 0.04308732 -0.31656128 0.14538148 0.23709513 -0.16170828 -0.11160981
0.17106353 0.26659504 0.057747964 -0.30820388 -0.04216918 0.12647851 0.039716322 0.021720288
0.50373894 0.124661714 -0.41120383 -0.15003282 0.27706254 -0.0228402 -0.07266284 0.17839661
0.038179632 0.1960481 0.010567765 0.0837174 0.10928427 0.038924195 -0.073184356 0.02035904
0.12710911 -0.07982826 0.059190057 -0.09424062 -0.11795444 -0.08290397 0.02978894 -0.057773355
-0.10239917 -0.0014642876 -0.07882598 0.0017678571 -0.10198143 0.10094916 -0.11824015 0.031402286
-0.013193235 -0.11029092 -0.00125188 -0.1708292 0.02982775 -0.15000036 -0.06619775 0.108019404
0.029656231 0.0056345896 0.026157118 -0.018433645 -0.0019710131 0.0028708111 -0.016679911 0.009608433
-0.04751692 0.0122600645 -0.05858445 0.123669855 -0.02253848 0.044258345 0.08969018 0.17247103
0.09595955 0.19339216 -0.015506524 0.0765703 -0.018994544 0.12244239 -0.16103867 -0.064701065
0.21175514 -0.011609178 -0.041913863 0.20428988 0.10374524 -0.090233006 0.10196991 -0.087313354
0.050520416 0.1847111 -0.00095345953 -0.32938698 -0.2497618 -0.22522324 0.10199876 -0.19378541
-0.24247739 0.060645547 0.1402603 -0.32584035 0.18181786 -0.17063761 0.17383146 0.10114332
0.04935726 -0.074940644 0.24953923 0.068388835 0.003739141 0.06650736 -0.10445064 -0.01857008
0.10868636 -0.36272883 0.0071250987 0.1359104 -0.13436866 -0.029789517 0.29546303 0.12126305
0.23243847 0.008548347 0.0048530977 -0.016655218 0.030248964 0.041693732 -0.08166612 0.14023852
-0.17999671 0.21027161 0.10488062 -0.018930186 -0.3141022 -0.033215784 -0.26644495 0.0014298769
-0.019286685 -0.11746868 -0.18870817 -0.26247936 -0.091205135 0.065169305 -0.025320033 -0.00019505798

edge_network.network.0.bias f4 [67]
00000000: fb8c bebc f9ba 4b3d b83b 3abd fdc0 113e
00000010: 70c7 72bd 552d 6e3e 7880 113e 2099 513d
00000020: 24b8 96bd 46da 6c3e 7d5b 1a3d b66c ae3c
00000030: d8a0 abbd f8fe dd3d a020 083d df23 f03d
00000040: 08fc a8be bcae 90bd 0570 9e3d c1c1 eebd
00000050: 324c 623e 268e 4b3e a72a debc 61ab 37bc
00000060: 592c 873e 82fe eb3c c39c c13d 6844 9abc
00000070: 5de6 893c 0943 71bd 4752 243e 7b60 553d
00000080: 5fc0 18be 8a42 613e 7bb5 303e 89cc 253d
00000090: b79c f4ba 7500 723d a0e8 33bc 26f5 2ebd
000000a0: d46b 89bd 303a 4f3e b837 23be ba83 2bbe
000000b0: 3601 b43e c2f7 c4bd 0dd6 353e eef6 a3be
000000c0: c782 3cbb fd42 21bd 5cd8 d2bd 9595 eebd
000000d0: 7bf3 df3d c5d2 8c3d d584 0fbe cc4c 133d
000000e0: a984 9d3c 6851 dc3a 1cb2 55bc 1145 a23d
000000f0: 2490 4ebc e8e0 433e d502 3b3e a8a3 0a3d
00000100: cfa5 56bd 558a fcbe 373f 9fbc
-0.023260584 0.049738858 -0.04546711 0.14233775 -0.05927223 0.2325948 0.14209163 0.051171422
-0.07359341 0.2313014 0.037684906 0.021292072 -0.08380288 0.10839647 0.03323424 0.11725592
-0.33004785 -0.07064578 0.0773621 -0.116580494 0.22099379 0.19878444 -0.027119948 -0.0112102935
0.26401022 0.028807882 0.09453728 -0.018831447 0.016833479 -0.05890182 0.16047011 0.052093964
-0.14917134 0.21998039 0.1725673 0.040478263 -0.0018662427 0.059082467 -0.010980755 -0.04271426
-0.0671002 0.2023704 -0.15939224 -0.16749468 0.35157174 -0.096175686 0.17757435 -0.3202433
-0.0028764473 -0.039370526 -0.102951735 -0.11649624 0.10935112 0.068761386 -0.14015515 0.03596191
0.019228296 0.0016808929 -0.013042953 0.079233296 -0.012607608 0.19128764 0.18262799 0.03384748
-0.05240422 -0.4932429 -0.019439323

edge_network.network.1.weight f4 [67]
00000000: b5c9 b43e ae0a 933e 7ece a63e ba1b bc3e
00000010: f057 af3e 8823 ee3e 84b6 b03e 815a 8e3e
00000020: 55ba bc3e 5200 c13e 4dda ac3e 8414 993e
00000030: 08a3 d23e be44 9f3e a955 b33e 9191 953e
00000040: dfff 933e b717 c43e d887 833e ced6 d43e
00000050: c73d ab3e 888c 893e 4d57 c53e 41f8 c73e
00000060: 5dc9 743f 81a6 a03e 57d4 623e 3fbf ab3e
00000070: becb 0d3f 5a8a b43e 6715 863e db1c 633e
00000080: b65c a03e b2b4 8c3e ce7d a73e ea2d 9d3e
00000090: 38c1 d33e 9efb e93e 9222 b83e 68d1 d03e
000000a0: f61e ad3e 2edc 853e 6c4b ba3e a026 753e
000000b0: 6e13 843e d26b b13e b2aa b73e 1bac 973e
000000c0: efd0 b73e ee1c c03e a6e5 973e 1ece a23e
000000d0: 32e9 833e 124b 7a3e 59a7 983e 3c1f a33e
000000e0: 4e97 be3e eab6 df3e 33da b13e d2ca b03e
000000f0: 35fe a03e be4c 7e3e 7d73 ac3e b6d1 d53e
00000100: b550 cf3e 82d1 143e aa5f ad3e
0.3531014 0.28719085 0.32579416 0.36739904 0.34246778 0.46511483 0.34514248 0.27803424
0.3686091 0.37695557 0.337603 0.29898465 0.41140008 0.31107134 0.3502629 0.2921262
0.28906152 0.38299343 0.25689578 0.41570133 0.3344557 0.2686503 0.38543168 0.3905659
0.95619756 0.31377032 0.22151314 0.33544347 0.5538901 0.35261804 0.26188204 0.22178976
0.31320733 0.2748161 0.3271317 0.30699092 0.41358352 0.4569978 0.35963875 0.40784764
0.33812684 0.26144546 0.36385667 0.23940516 0.25796074 0.34652573 0.35872418 0.29623494
0.3590159 0.37522072 0.29667395 0.3179788 0.2576385 0.244427 0.29815176 0.31859767
0.3722481 0.4369424 0.34736785 0.3452974 0.31443945 0.24833962 0.3368186 0.4176156
0.40491262 0.14533046 0.33862048

edge_network.network.1.bias f4 [67]
00000000: 8f6b 583b ba8c 0bbe 7037 2abd 4a00 093d
00000010: e702 77bd 28ea 4abc a09d abbd 2897 c3bd
00000020: 23c7 92bd 6490 2cbe 1aad cb3d 41cd a6bd
00000030: e503 e6bc 84d6 26be 249d b3bd 9030 edbd
00000040: 6a41 98bd 17a2 6fbd f63c a9bd 1d5e 3fbd
00000050: 1957 1cbe 8a53 22be c8b7 c3bb 4414 9ebd
00000060: 16b2 aebc 4cad 133d fec7 cd3b 9915 92bd
00000070: 32a1 01bd f772 d1bd 5b9b ecbd 71ee 03bc
00000080: cbd9 1e3c 82ae 07be a024 97bd 4106 6d3b
00000090: b88c e4bc f627 a23b 5fe3 a5bd 1804 c6bc
000000a0: d221 a2bd e212 19be 6c26 6fbb e185 06be
000000b0: fc8e 11be c8a9 02bd 76ff babd c565 1a3d
000000c0: cf09 c3bd 7ad9 08bd f7e1 b4bd 40dc 99bc
000000d0: 92b0 31be 4c27 dfbd 3133 ffbd 58cb e9bd
000000e0: 55fd 93bd 3e2d 6bbd 8101 9ebd 2158 80bd
000000f0: 384b 9abd 39d0 12be 3ca6 63bc 2e9f f0bc
00000100: 766c 03bc f134 c23d 279c cdbd
0.0033023094 -0.13627902 -0.041556776 0.03344754 -0.060305502 -0.012384929 -0.08379674 -0.09550315
-0.071668886 -0.16851956 0.09945126 -0.08144618 -0.028078029 -0.16292769 -0.087702066 -0.11581528
-0.07434352 -0.05850419 -0.082635805 -0.046720613 -0.152676 -0.1585218 -0.005972836 -0.07718709
-0.021325152 0.03605394 0.0062799444 -0.07133026 -0.03164787 -0.10227006 -0.11553069 -0.008052454
0.009695481 -0.13250163 -0.073800325 0.0036167058 -0.027899131 0.0049486114 -0.08100008 -0.024171874
-0.07916607 -0.1494861 -0.0036491407 -0.13137008 -0.142147 -0.031900197 -0.091307566 0.03769471
-0.09523355 -0.033410527 -0.08832162 -0.018781781 -0.17352512 -0.10896167 -0.12460936 -0.11415738
-0.072260536 -0.057416193 -0.077151306 -0.06266809 -0.07533878 -0.14337243 -0.013894614 -0.029372778
-0.008021465 0.09482754 -0.10039549

edge_network.network.3.weight f4 [67, 67]
00000000: 5179 c7bc eb8b e93c 9dd2 8bbc f470 a93b
00000010: 0d16 203d 4857 133e 8f52 453d d14f a53d
00000020: bff3 23bb 0187 70ba 5690 80bd 877e 9cbb
00000030: f0d0 ccbc b11d 8d3d 079a 523d 22c3 833d
00000040: 18db 8b3c 3ed1 593d 21f2 4b3c 9ee2 10bd
00000050: 8844 673d 7126 2f3d 4152 ae3d e597 f0bc
00000060: 3c7c 143d 7068 f8bc 3406 26bc ae95 303d
00000070: 7a4c a93d 9352 6b3c 657b d0bc bc96 81bd
00000080: 8529 8e3d b265 cc3d f52f 583d f7ba acbb
00000090: 147e 273d c4e6 13bd a41e 76bb 753b 4b3d
000000a0: c6f1 483c 8262 db3c eeb7 5dbc 54f3 80bc
000000b0: 6a4e 713c acfd a63c 8995 5a3d 689b d53d
000000c0: 0d08 39bd 0c22 f53c c002 d9bc da52 af3d
000000d0: 14cf df3d 5fae e93c 6831 cebc da5d 733d
000000e0: c191 b13d 1c21 093c 6585 9d3d 3b75 9bbd
000000f0: 3a40 8a3c d15b 28bc 9565 02be 4a09 bb3d
00000100: e29e a7bb 8919 f9bb cf83 f03c 8117 9fbd
00000110: 43a5 9a3b 003b 023d 20d0 18bd 1e86 0dbd
00000120: f71b f23c 92b9 333d 2e0d 20be c8a1 273c
00000130: f87d 07bd a356 e9bb 34b2 1dbc 1872 883d
00000140: a523 0abe 24ba c53b 5e5b 97bc c135 ff3d
00000150: 5bda 79bd 2c5f a2bc a39c eb3d 6efa 20be
00000160: 2716 19bd ea18 ec3d 3d0d 9c3d b0ac f5bd
00000170: 0f91 653d 1475 f6bc ab01 8fbd b655 38bc
00000180: 7363 3c3c b2f8 e8bc 2cd0 8d3d aec5 3abd
00000190: 0a41 a4bd 127e 0d3b 7f88 efbc 8ea6 a3bd
000001a0: d30f a33d 32f7 323e 7ce4 54bd 4b59 0dbd
000001b0: c3ab 223a 5131 f83d 6d4a a7bd 1c7d 1e3d
000001c0: ccf4 d0bd 289c 64be b9df 0cbd 2a37 163e
000001d0: 64c7 04bd 688b 063e 965a 32bd de7d 0ebe
000001e0: d4f6 1ebd a70b a83c 9610 3e3d df03 793d
000001f0: bd2a bcbd f8fc 6bbd ad9e 493c 6d71 6e3d
00000200: 19f0 1e3d de71 033e e3b9 01bd 099d 8c3d
00000210: 0362 88bd 6310 72bc 934c 79bd 8f78 603e
00000220: a24e 933d 7792 88bc 6e69 30bd bb33 ea3e
00000230: e80b 303c 139a 90bd ec58 c13c aeea cebd
00000240: 0dab 92bd 38ce 153e 038a db3d 54cc 81bd
00000250: dec8 c0bc 4f37 1d3d 5c2b a6bd c672 b53c
00000260: 7568 953d de7b 783d 24da 59bd ba9b 1b3d
00000270: 4b3a b2be af84 083d 851d 513d 960d cf3c
00000280: 19f9 29bd 26ea 8fbd 1691 83bd 7f0d f4bc
00000290: 85c9 a43c f9bf a43d 15e9 b23e f17e 85bc
000002a0: e30d d03d 37de c13d c6ac 263b ef59 83bd
000002b0: 14db 833b 6f65 30bd af40 3cbe 7b0f 0e3e
000002c0: 2afe 89bb 906d 003d 4d7b e7be a401 aabd
000002d0: d6bc 0bbe ec25 56be 1fe6 053e 4eff a8bc
000002e0: c1cc b53d 6038 9cbd a331 a0bc 2b7a 853d
000002f0: 24dd 203d 6d37 cd3d 5727 48b9 9ceb 9d3e
00000300: b4f4 20bd c4a1 8cbd a4e3 933c 8867 1ebe
00000310: d172 acba 4434 b1bd 43d6 0b3e 9572 61be
00000320: f812 00be 7e69 533d b7a2 223d b8e3 8abc
00000330: 0c3d 503d 91ec 28bb 029f a5bd 8b7e b3bd
00000340: 2ffe 2dbd ca66 393d 604f 3b3d 1ab0 653a
00000350: 626b d53d 4d51 12bd 743b f53d 4110 2fba
00000360: 1545 26bd 9e67 88bf 830d b13c c53b 28bd
00000370: 85db cd3d c44e 543b 0186 a83a a91c cb3b
00000380: 5b26 adbc 67be a6bd 0bfa c0bc 4eb7 e7bc
00000390: 6115 1dbc aa05 bc3d e1ce 38bd 310e c03d
000003a0: 9eb4 c93d 1cb9 8dbd 0df1 dfbd ae27 603b
000003b0: 82ef 7dbd 5330 e0bb ca69 96bd a1c7 653d
000003c0: ba2e 80bd 9f19 9f3c e222 af3d 876a 57bc
000003d0: c88a 62bd 13d0 823d 3fae 803d 3aea 7abe
000003e0: 8ce3 953d ba3d e23c 9852 da3c dca0 093d
000003f0: 99e4 2bbe d0ce b4bd 4f6d 263e c054 85bc
-0.02434984 0.0285091 -0.017068202 0.0051709358 0.03908353 0.14388764 0.048174437 0.080718644
-0.002501711 -0.00091753906 -0.0627753 -0.0047758254 -0.025001973 0.06890429 0.051416423 0.06433703
0.017072245 0.053178065 0.012447865 -0.03537237 0.05646184 0.04276127 0.085117824 -0.029369304
0.03625129 -0.030323237 -0.010133315 0.043111496 0.0826654 0.014362949 -0.025449464 -0.063275784
0.06941513 0.09980334 0.05278011 -0.0052713114 0.04089172 -0.036108747 -0.0037554884 0.04961725
0.0122646745 0.02678037 -0.013532622 -0.015741028 0.014728168 0.020384632 0.053365264 0.10430032
-0.045173693 0.029923461 -0.02649057 0.085607246 0.10928169 0.02852553 -0.025170043 0.059415676
0.086703785 0.00836971 0.076914586 -0.07590719 0.016876329 -0.010275797 -0.12734063 0.09132631
-0.005115376 -0.007601921 0.029359726 -0.07768155 0.0047194078 0.031794548 -0.03730786 -0.034551732
0.02955435 0.043878146 -0.15630028 0.010231443 -0.033079118 -0.0071209236 -0.0096250065 0.06662387
-0.1349016 0.0060341526 -0.018476184 0.124614246 -0.060999256 -0.019820772 0.115044855 -0.15720531
-0.03737464 0.115281895 0.076197125 -0.11995828 0.05604654 -0.030085124 -0.0698274 -0.011250904
0.01149832 -0.0284389 0.06924471 -0.04559868 -0.08020218 0.0021590036 -0.029239891 -0.07990752
0.079620026 0.1747711 -0.051975712 -0.034508985 0.0006205404 0.12118781 -0.081684925 0.038693532
-0.10202941 -0.22325194 -0.034393046 0.14669481 -0.032416716 0.13139117 -0.04354342 -0.13915202
-0.038809612 0.020513369 0.046402536 0.060794707 -0.09187839 -0.057614297 0.012305898 0.05821364
0.038803194 0.12836406 -0.031671416 0.068658896 -0.06659319 -0.014774415 -0.060864042 0.2192099
0.071927324 -0.016671402 -0.043069296 0.45742592 0.010745026 -0.07060637 0.023601972 -0.10103355
-0.071615316 0.14629447 0.10719683 -0.063378006 -0.023533281 0.038382825 -0.08113739 0.022149455
0.07295314 0.060665004 -0.05318655 0.03799031 -0.348101 0.033329662 0.051053543 0.025275033
-0.041497324 -0.07027082 -0.06424157 -0.029791592 0.020115623 0.080444284 0.34943452 -0.016295882
0.10158899 0.09466212 0.002543257 -0.06413638 0.004023919 -0.043065485 -0.1838405 0.13873093
-0.004211207 0.031354487 -0.4521126 -0.08301094 -0.13646254 -0.20912904 0.13076065 -0.020629551
0.08876944 -0.0762794 -0.019554919 0.06517442 0.039273396 0.10020337 -0.00019088142 0.30843818
-0.039295867 -0.06866792 0.018052883 -0.15469182 -0.0013156777 -0.08652547 0.13655953 -0.22016366
-0.12507236 0.051614277 0.03970596 -0.016954288 0.05083947 -0.002577577 -0.08086969 -0.087643705
-0.042478736 0.045264043 0.045729995 0.0008761898 0.10420872 -0.035722066 0.119742304 -0.0006678142
-0.040593226 -1.0656621 0.021612888 -0.041072626 0.10051636 0.003239558 0.0012857319 0.006198485
-0.021136453 -0.08141785 -0.02355673 -0.028285649 -0.009587617 0.09180768 -0.04511917 0.09377707
0.09848903 -0.069200724 -0.10934649 0.0034203338 -0.06199599 -0.006841698 -0.073443964 0.056098584
-0.062589124 0.019421397 0.08551575 -0.013147957 -0.055308133 0.06387343 0.06283235 -0.24503413
0.07318792 0.027617324 0.026650712 0.033600673 -0.16786422 -0.08828509 0.16252635 -0.016275764
