pileup_0/lightning_checkpoints/LRT_GNN/fulltrain/checkpoints/last.ckpt (torch, 773717 bytes, 140 tensors)

input_network.0.weight f4 [64, 3]
0.055308305 -0.09698682 0.023387881 0.012546492 -0.039347585 0.005814349 -0.24175322 -0.12647118
0.031001778 -0.33806565 -0.10637479 -0.11736734 -0.1615277 -0.14926703 -0.0010558682 0.04361273
-0.23165965 0.025043564 0.06077645 -0.14628384 -0.11075827 0.054535314 -0.42114058 0.022341724
0.05364662 -0.2902873 0.009582024 -0.40866134 0.07465834 -0.057725385 -0.20934388 -0.063128255
-0.013771631 0.34552988 -0.04860741 0.16716293 0.17162056 -0.000435369 -0.0413038 0.23432586
-0.07944604 -0.037641272 0.24638616 0.007144675 0.08246655 0.1838007 0.124510415 0.048386548
0.10504435 -0.050476737 0.020741167 0.14122282 0.11413087 -0.018388761 -0.026945414 -0.18988624
0.087954484 0.038761154 -0.16022101 0.0017285899 0.2722346 0.14532566 0.027469235 0.05167275
-0.32217538 0.02436989 -0.30583003 0.17681432 0.07514451 0.07493787 -0.17956586 0.027233275
-0.2700268 0.042329744 -0.093111046 0.28112826 0.1044194 0.1016641 0.052841906 -0.98968345
0.016925467 -0.21024826 0.10101346 -0.023965841 0.036095787 -0.24111696 0.020861838 0.25116396
-0.20740655 0.11480099 -0.21913996 -0.048049703 -0.020211954 -0.3965888 0.09416018 0.055758372
0.5000507 0.11464877 0.021550387 0.100153275 -0.40888724 -0.04910933 0.1057106 -0.7395209
0.025629979 0.06582377 -0.1549505 0.030502368 -0.36165124 -0.22657421 0.08430511 0.22675022
-0.26581416 0.066577844 0.3562557 0.0037449375 0.05313991 0.5338132 -0.025775056 0.024042632
0.07504207 -1.3359122 0.014576001 -0.4184709 -0.08766085 -0.07467324 -0.14618723 0.022104751
0.0868164 0.08937317 -0.0894131 -0.1718273 0.22806457 0.052914865 0.08899581 0.21086621
-0.06478082 0.040390447 0.22634484 0.06439464 -0.03060078 -0.4982381 -0.06753116 0.07579236
-0.32088897 0.080283485 0.0793851 -0.03836163 -0.3811917 0.020855334 -0.0048108944 -0.20130725
0.12381718 -0.07949594 -0.0781448 0.034841664 0.2484929 0.13556843 0.018656783 0.319424
0.16950232 0.15537824 -0.43052933 0.030416938 -0.046215937 0.07653808 -0.42885813 0.029361423
-0.3844346 -0.022411382 -0.06969008 -0.37346542 0.10167352 0.109509625 0.2768448 0.113189854
0.14151241 0.1450182 -0.17716676 -0.04315874 0.0933566 -0.009536181 0.027062913 0.5936806
0.011898314 0.025258824 -0.09179312 0.031195154 -0.20598583 -0.12439688 -0.013148378 0.011264137
00000000: f68a 623d 07a1 c6bd f197 bf3c cd8f 4d3c
00000010: ef2a 21bd 4b86 be3b 288e 77be a981 01be
00000020: 71f7 fd3c f116 adbe 07db d9bd 4a5e f0bd
00000030: 8467 25be 75d9 18be 0f65 8aba 43a3 323d
00000040: 3038 6dbe 2928 cd3c baf0 783d 6ecb 15be
00000050: 3bd5 e2bd 6c60 5f3d bd9f d7be fe05 b73c
00000060: 8fbc 5b3d 89a0 94be ecfd 1c3c 0f3c d1be
00000070: 79e6 983d 7471 6cbd 3e5e 56be 6349 81bd
00000080: 68a2 61bc 4be9 b03e 9018 47bd c22c 2b3e
00000090: 4dbd 2f3e 3d42 e4b9 2c2e 29bd 1ef3 6f3e
000000a0: 9bb4 a2bd bc2d 1abd a74c 7c3e e11d ea3b
000000b0: 39e4 a83d 4036 3c3e 51ff fe3d f930 463d
000000c0: 7e21 d73d b2c0 4ebd 61e9 a93c b79c 103e
000000d0: 72bd e93d 07a4 96bc a1bc dcbc 8a71 42be
000000e0: 7b21 b43d 04c4 1e3d fa10 24be da91 e23a
000000f0: 5562 8b3e 40d0 143e 2907 e13c cea6 533d
00000100: 2cf4 a4be 5da3 c73c c195 9cbe d00e 353e
00000110: 5de5 993d 0779 993d 1de0 37be 5118 df3c
00000120: f440 8abe f461 2d3d 01b1 bebd 0bf0 8f3e
00000130: d7d9 d53d 4535 d03d c170 583d e55b 7dbf
00000140: 47a7 8a3c 524b 57be 25e0 ce3d 0354 c4bc
00000150: 2dd9 133d 5de7 76be 72e6 aa3c 9098 803e
00000160: 6262 54be c81c eb3d 3a66 60be c4cf 44bd
00000170: 8a93 a5bc b00d cbbe 0dd7 c03d e462 643d
00000180: 5303 003f f9cc ea3d 708a b03c 291d cd3d
00000190: ab59 d1be dd26 49bd cd7e d83d 3e51 3dbf
000001a0: f6f5 d13c 9dce 863d 58ab 1ebe 1ae0 f93c
000001b0: 5a2a b9be 1203 68be 28a8 ac3d 3631 683e
000001c0: cb18 88be f759 883d 2667 b63e a06d 753b
000001d0: 3ca9 593d fba7 083f 3626 d3bc 0ef5 c43c
000001e0: a8af 993d 2cff aabf 2ed0 6e3c d141 d6be
000001f0: 8887 b3bd 49ee 98bd 1bb2 15be 0615 b53c
00000200: cccc b13d 4809 b73d 371e b7bd 7ff3 2fbe
00000210: c289 693e 42bd 583d 6f43 b63d 50ed 573e
00000220: ceab 84bd 7470 253d f1c6 673e 56e1 833d
00000230: 7dae fabc 1019 ffbe c74d 8abd 0639 9b3d
00000240: 8f4b a4be ab6b a43d a894 a23d 1621 1dbd
00000250: 8f2b c3be ced8 aa3c b5a4 9dbb 7d23 4ebe
00000260: dd93 fd3d c4ce a2bd 620a a0bd 22b6 0e3d
00000270: ec74 7e3e 73d2 0a3e 1cd6 983c 8b8b a33e
00000280: 0492 2d3e 791b 1f3e 576e dcbe f12c f93c
00000290: ec4c 3dbd ffbf 9c3d 4b93 dbbe 5e87 f03c
000002a0: 9dd4 c4be 1398 b7bc acb9 8ebd dc36 bfbe
000002b0: 353a d03d 9546 e03d 9abe 8d3e 15d0 e73d
000002c0: a1e8 103e a77f 143e 346b 35be 38c7 30bd
000002d0: bf31 bf3d a43d 1cbc 0bb3 dd3c 74fb 173f
000002e0: 25f1 423c 98eb ce3c 08fe bbbd fb8c ff3c
000002f0: f3ed 52be cbc3 febd 4b6c 57bc 378d 383c

input_network.0.bias f4 [64]
-0.22070229 -0.30184233 0.21426089 -0.4635837 0.101640105 -0.26472446 -0.5549364 -0.2118858
-0.27467507 0.26804802 0.024006953 -0.23926832 -0.19019033 -0.31033123 -0.56966513 -0.2672952
-0.41679236 -0.34827885 0.3432151 -0.098700464 -0.213145 -0.45095736 0.3692766 -0.15045157
-0.66909724 -0.2954166 0.02055807 -0.056039758 -0.4869237 0.10369923 -0.049474195 0.2423493
-0.3344251 -0.6885215 0.44822907 -0.11423469 0.23629408 -0.34281027 0.050571512 -0.027985586
0.04748992 0.35020986 0.423788 -0.5250136 -0.10129329 0.13076255 0.046117198 0.30120987
0.26590914 -0.20350447 0.24501155 0.121607415 0.041665673 -0.32368892 -0.12623757 -0.19688731
0.25405914 0.41937345 -0.123335876 -0.44743115 -0.21271273 -0.028255688 -0.35059685 -0.02937861
00000000: c8ff 61be 148b 9abe 3567 5b3e d85a edbe
00000010: b028 d03d f789 87be 5010 0ebf 97f8 58be
00000020: 36a2 8cbe 973d 893e 3baa c43c c102 75be
00000030: 41c1 42be bce3 9ebe 93d5 11bf ebda 88be
00000040: cf65 d5be 9b51 b2be e4b9 af3e 7823 cabd
00000050: af42 5abe e2e3 e6be d311 bd3e fa0f 1abe
00000060: f549 2bbf d840 97be 6669 a83c f289 65bd
00000070: 104e f9be 4360 d43d 74a5 4abd 6a2a 783e
00000080: c439 abbe f242 30bf 487e e53e e1f3 e9bd
00000090: 13f7 713e d484 afbe 1324 4f3d 0742 e5bc
000000a0: ca84 423d b54e b33e befa d83e 4b67 06bf
000000b0: db72 cfbd 9ee6 053e 63e5 3c3d 2e38 9a3e
000000c0: 3e25 883e 7a63 50be 4fe4 7a3e 4f0d f93d
000000d0: a0a9 2a3d 8eba a5be 6c44 01be d49c 49be
000000e0: 0a14 823e 1eb8 d63e 8597 fcbd b215 e5be
000000f0: 5ed1 59be 7978 e7bc 6e81 b3be 69ab f0bc

input_network.1.weight f4 [64]
0.23644216 0.2043256 0.31689134 0.32581896 0.291321 0.22903001 0.28863108 0.20180964
0.17154945 0.5678127 0.2659693 0.3566883 0.25651357 0.27328116 0.24328008 0.22673525
0.2358642 0.2486027 0.23533362 0.20694764 0.27844864 0.22387065 0.43476045 0.22689986
0.2902485 0.28228512 0.38856632 0.2603173 0.25271928 0.29306966 0.2760013 0.49339205
0.51239175 0.22226436 0.25988278 0.20337738 0.49007788 0.26054287 0.3955577 0.5255618
0.36000466 0.508726 0.24639034 0.31661922 0.2831782 0.25221238 0.27349272 0.65456223
0.4179893 0.24082196 0.28292662 0.24253675 0.2628682 0.3568247 0.66164696 0.21951772
0.33231157 0.6547423 0.31768292 0.2149633 0.21421078 0.571899 0.3604315 0.34102583
00000000: e51d 723e bb3a 513e 953f a23e bed1 a63e
00000010: 0728 953e d886 6a3e 74c7 933e 30a7 4e3e
00000020: a9aa 2f3e 2c5c 113f 212d 883e d99f b63e
00000030: bf55 833e 82eb 8b3e 6a1e 793e 492d 683e
00000040: 6386 713e b591 7e3e 4cfb 703e 15ea 533e
00000050: d290 8e3e 593e 653e ec98 de3e 7058 683e
00000060: 749b 943e ad87 903e 2af2 c63e 4f48 853e
00000070: 6c64 813e 3a0d 963e 0b50 8d3e e29d fc3e
00000080: 1b2c 033f 4599 633e 5b0f 853e 2942 503e
00000090: 7deb fa3e e065 853e 8a86 ca3e 388b 063f
000000a0: 8852 b83e de3b 023f c04d 7c3e ea1b a23e
000000b0: bcfc 903e fb21 813e 3d07 8c3e 6491 273f
000000c0: b202 d63e 089a 763e c2db 903e 8e5b 783e
000000d0: a996 863e bab1 b63e b261 293f 41c9 603e
000000e0: be24 aa3e 319d 273f 56a7 a23e 571f 5c3e
000000f0: 125a 5b3e f967 123f 7a8a b83e f09a ae3e

input_network.1.bias f4 [64]
-0.098803475 -0.12288358 -0.07354289 -0.040805425 -0.042872425 -0.08120519 -0.16827273 -0.13030078
-0.15160452 0.06787952 -0.078754015 -0.11678611 -0.08484761 -0.13970105 -0.12921964 -0.14880602
-0.09582301 -0.060903575 -0.06823803 -0.1076855 -0.030534713 -0.087899745 0.0024205185 -0.13150984
-0.035552476 -0.14793937 -0.05471522 0.008731329 -0.08675226 -0.076180644 0.027087579 -0.040218223
-0.057113014 -0.14629877 -0.05342203 -0.11004849 0.0014177862 -0.14373426 -0.11918917 -0.05229254
-0.087336816 0.049476605 -0.009099622 -0.14161429 -0.10918629 -0.15154025 -0.14484654 0.009393049
-0.005457793 -0.05655529 -0.00073873193 -0.085642934 -0.10985581 -0.10814402 0.06821258 -0.1307505
-0.03535988 0.06756769 -0.0715252 -0.17517067 -0.08578069 -0.056484427 -0.12365778 -0.042083938
00000000: 7a59 cabd 63aa fbbd a89d 96bd 9723 27bd
00000010: ff9a 2fbd e84e a6bd b04f 2cbe 916d 05be
00000020: 373e 1bbe 6b04 8b3d c949 a1bd 8e2d efbd
00000030: 95c4 adbd cb0d 0fbe 2752 04be 9b60 18be
00000040: db3e c4bd 0776 79bd 61c0 8bbd 378a dcbd
00000050: ef23 fabc c804 b4bd 90a1 1e3b 84aa 06be
00000060: 799f 11bd 6b7d 17be 111d 60bd d90d 0f3c
00000070: 2bab b1bd 9904 9cbd c5e6 dd3c ddbb 24bd
00000080: 56ef 69bd 58cf 15be 0fd1 5abd 1a61 e1bd
00000090: 03d5 b93a 132f 13be 7419 f4bd b430 56bd
000000a0: a5dd b2bd fba7 4a3d 9516 15bc 5603 11be
000000b0: 109d dfbd 5e2d 1bbe a752 14be 4ee5 193c
000000c0: 49d7 b2bb 85a6 67bd 76a7 41ba 9065 afbd
000000d0: 15fc e0bd 9d7a ddbd 0ab3 8b3d 76e3 05be
000000e0: 86d5 10bd ee60 8a3d ce7b 92bd f15f 33be
000000f0: c9ad afbd 375c 67bd 4a40 fdbd 3560 2cbd

input_network.3.weight f4 [64, 64]
0.034522016 0.0324821 0.06726361 -0.003876358 0.0044571706 0.01833735 0.006435498 0.04439065
0.030865222 0.07084128 0.039818127 -0.024249436 0.035322987 -0.018349119 0.016200468 -0.02466456
-0.007837111 0.0018962144 0.02872653 0.032465477 -0.02951703 0.020939035 0.07495058 0.023414655
0.030611392 0.017766692 -0.027948597 0.0070986804 0.0019075451 -0.0032921752 -0.016179731 0.08872982
-0.077748865 0.044147123 -0.03303957 0.021631142 0.027300647 -0.008034519 -0.03277057 -0.068310685
0.018417893 0.14324738 -0.0072741755 0.04751023 -0.016625393 -0.037389424 0.015962955 0.12055892
0.08561481 0.021144452 0.060388584 0.009551954 -0.028969085 0.020204097 0.037393812 0.045840483
0.020961255 0.09454439 -0.009132574 -0.002377135 0.0047438475 -0.08584632 0.0548724 0.033618953
-0.03444121 -0.00246181 -0.032331046 -0.027593344 0.011814476 0.00781996 0.007832509 0.014211718
0.027096605 -0.11579249 -0.022806523 0.0649593 -0.0022125714 0.013157663 0.0065187844 0.006328926
-0.044706035 0.0307519 0.048333026 0.006603102 0.015730275 -0.001327615 -0.05745682 -0.056926534
0.018098913 0.033597127 -0.059205495 -0.047856644 0.03129706 0.04987867 -0.011464758 -0.07489444
0.13334626 0.019683879 -0.058080453 0.039078996 -0.077122115 -0.0046449048 0.081522115 0.13361521
-4.616379e-06 -0.16766901 0.014286901 -0.010505048 0.026854789 0.010482978 -0.013947534 -0.107506715
-0.05310956 0.041424964 0.022015847 -0.012035104 0.040677525 0.05012611 -0.09715356 -0.045773413
-0.000940359 -0.18541738 0.07211806 0.012019421 0.011680634 0.1204099 -0.0038831306 -0.047669984
0.014080953 -0.00056795275 -0.0399997 0.08325094 0.0094941845 0.005255053 0.08812817 -0.013678203
-0.013792837 0.17100148 0.071564674 0.04333754 0.041088626 0.022597862 0.033697497 0.04571453
0.0017907718 0.02846407 0.013981625 0.048230145 -0.028954426 0.010063443 -0.0014370946 0.025465935
0.10587971 0.03642513 -0.04744438 0.08639198 0.024302613 0.048480894 0.032082092 -0.0026522516
-0.076725885 0.061589308 -0.022569742 0.02402916 -0.030196674 0.004642755 -0.09929696 -0.043810055
-0.04486167 0.23553868 -0.024556668 0.10529371 0.0008870668 -0.04560886 0.028366584 -0.08287352
0.0011892805 0.03861201 -9.290305e-05 0.028545398 -0.06403661 0.018439494 0.009169372 0.010432788
0.12706523 -0.021144388 0.005375513 0.06295862 -0.0030997528 -0.1200498 0.10687377 0.0049122376
0.0031128393 -0.056783386 0.03235995 0.0014025079 -0.02673313 0.0022828232 -0.022267483 0.006512098
-0.025935987 0.04918272 -0.042664856 0.04321984 -0.008081908 -0.057116214 0.029547531 0.012754751
-0.050790418 0.00066237 0.061931513 -0.0565207 -0.005494382 0.013485544 0.12520322 0.082639374
-0.02124261 0.048347365 0.02231743 0.046370283 0.005513193 0.05059657 0.013540634 0.05939638
-0.12071514 -0.04834096 0.09879566 0.010983912 0.088313416 0.01312664 -0.0631202 -0.11572587
0.04138947 0.007154107 0.07902452 -0.07673589 0.027516816 -0.0060213157 -0.05281014 0.02803733
0.1221638 0.0052025723 0.07501957 0.060867872 -0.0056607276 0.041969594 0.13684571 0.008525072
0.009502937 0.25947133 0.03613712 -0.04213751 -0.014257197 -0.108394 -0.031728297 0.0459294
00000000: f566 0d3d f30b 053d 81c1 893d 7f0a 7ebb
00000010: 750d 923b 3638 963c dfe0 d23b f8d2 353d
00000020: 10d9 fc3c 3c15 913d 5518 233d c1a6 c6bc
00000030: d6ae 103d e450 96bc d8b6 843c 550d cabc
00000040: 3a67 00bc 668a f83a e653 eb3c 85fa 043d
00000050: b3cd f1bc 5788 ab3c b17f 993d 17d0 bf3c
00000060: bec4 fa3c 748b 913c 75f4 e4bc 0c9c e83b
00000070: 9806 fa3a 89c1 57bb 5b8b 84bc fbb7 b53d
00000080: cc3a 9fbd 9dd3 343d 8054 07bd cb33 b13c
00000090: 9ba5 df3c 37a3 03bc 6f3a 06bd 79e6 8bbd
000000a0: 1fe1 963c 71af 123e 355c eebb 169a 423d
000000b0: fa31 88bc a725 19bd bec4 823c 98e7 f63d
000000c0: d156 af3d 2137 ad3c 055a 773d cd7f 1c3c
000000d0: 9350 edbc 1083 a53c 412a 193d 3bc3 3b3d
000000e0: f0b6 ab3c 7da0 c13d cba0 15bc b5c9 1bbb
000000f0: 4772 9b3b 32d0 afbd e2c1 603d 07b4 093d
00000100: 3a12 0dbd 5156 21bb 8f6d 04bd 700b e2bc
00000110: 8191 413c 4a1f 003c ed53 003c 44d8 683c
00000120: b3f9 dd3c 9d24 edbd bfd4 babc 6209 853d
00000130: ca00 11bb 3d93 573c 879b d53b e162 cf3b
00000140: ad1d 37bd 69eb fb3c daf8 453d d65e d83b
00000150: c7dc 803c 5e03 aeba d857 6bbd cc2b 69bd
00000160: 2c44 943c 249d 093d 7681 72bd 5405 44bd
00000170: 5931 003d 944d 4c3d aed6 3bbc 4262 99bd
00000180: ec8b 083e 1640 a13c c5e5 6dbd 4c11 203d
00000190: 33f2 9dbd 4934 98bb 11f5 a63d 6dd2 083e
000001a0: 65e6 9ab6 6db1 2bbe 9b13 6a3c 5d1d 2cbc
000001b0: 93fe db3c ccc0 2b3c 3384 64bc 7b2c dcbd
000001c0: 6989 59bd 39ad 293d 945a b43c e32e 45bc
000001d0: 7a9d 263d 0951 4d3d 72f8 c6bd e77c 3bbd
000001e0: 6d82 76ba 0ede 3dbe a2b2 933d 1bed 443c
000001f0: 2160 3f3c 7799 f63d 1f7c 7ebb 9a41 43bd
00000200: ccb3 663c aae2 14ba bad6 23bd 787f aa3d
00000210: 7f8d 1b3c 9432 ac3b 8b7c b43d 8b1a 60bc
00000220: 5afb 61bc 031b 2f3e 8090 923d b482 313d
00000230: 8c4c 283d 271f b93c 6306 0a3d 293f 3b3d
00000240: 55b8 ea3a 7b2d e93c 3013 653c f98c 453d
00000250: d531 edbc 24e1 243c e55c bcba f09d d03c
00000260: 76d7 d83d 8432 153d 0a55 42bd 47ee b03d
00000270: 4616 c73c e793 463d 8368 033d 66d1 2dbb
00000280: 7622 9dbd 1245 7c3d 2ee4 b8bc cdd8 c43c
00000290: 045f f7bc 4022 983b 345c cbbd 2c72 33bd
000002a0: dfc0 37bd 0d31 713e 112b c9bc 3ba4 d73d
000002b0: 0c8a 683a 5bd0 3abd 0a61 e83c 98b9 a9bd
000002c0: a2e1 9b3a a127 1e3d f2d4 c2b8 0ad8 e93c
000002d0: a025 83bd 6c0e 973c 223b 163c 49ee 2a3c
000002e0: 631d 023e ff36 adbc 1225 b03b 73f0 803d
000002f0: 3925 4bbb abdc f5bd a3e0 da3d d6f6 a03b
00000300: c700 4c3b b295 68bd de8b 043d 5bd4 b73a
00000310: 70ff dabc 6b9b 153b 4c6a b6bc 7063 d53b
00000320: b577 d4bc d273 493d 58c1 2ebd 4907 313d
00000330: fb69 04bc b1f2 69bd aa0d f23c 4ef9 503c
00000340: 9d09 50bd e6a2 2d3a e6ab 7d3d 4082 67bd
00000350: 380a b4bb 79f2 5c3c 4635 003e d53e a93d
00000360: fb04 aebc e307 463d 0bd3 b63c c4ee 3d3d
00000370: 04a8 b43b 593e 4f3d 89d9 5d3c 9e49 733d
00000380: 8039 f7bd 2c01 46bd 6155 ca3d def5 333c
00000390: aadd b43d 1e11 573c 2a45 81bd af01 edbd
000003a0: 0188 293d 006d ea3b 9cd7 a13d b527 9dbd
000003b0: f26a e13c 754e c5bb 724f 58bd 8bae e53c
000003c0: 0431 fa3d 577a aa3b dca3 993d 9750 793d
000003d0: a07d b9bb 4fe8 2b3d 4821 0c3e beac 0b3c
000003e0: 35b2 1b3c 6dd9 843e 8404 143d 6298 2cbd
000003f0: 0597 69bc acfd ddbd 88f5 01bd 7720 3c3d

input_network.3.bias f4 [64]
0.013445431 0.03655919 0.0532609 0.013695107 -0.0017164319 0.0063730767 0.028117595 0.012207196
-0.06229444 0.018975055 -0.001051867 0.024566198 0.04057125 -0.013406315 0.0572206 0.021245485
-0.00048258202 -0.06806652 0.007545181 0.09938623 0.050743863 -0.07359476 -0.0093902 0.056837052
-0.11471983 -0.053875647 0.042328715 0.032944877 0.012448103 -0.045123763 -0.0042135087 -0.03255824
0.053649038 -0.047933325 -0.02178897 0.011040672 0.0049252966 0.051174104 0.02236681 0.032755673
-0.025030201 0.029419646 -0.0029503142 -0.010579111 0.024201216 0.022199735 0.0134325735 0.008593777
-0.09365705 0.08367344 -0.0017786791 0.05913959 0.023978174 0.030062295 0.022436604 0.045592524
-0.021114925 -0.057666004 0.048124637 0.028262703 0.04842109 -0.02080443 -0.06345572 -0.042706452
00000000: 3a4a 5c3c 17bf 153d 1a28 5a3d 7161 603c
00000010: e6f9 e0ba 3ed5 d03b df56 e63c b100 483c
00000020: 7428 7fbd 9371 9b3c cdde 89ba 0d3f c93c
00000030: 0a2e 263d 29a6 5bbc 2660 6a3d 030b ae3c
00000040: 1003 fdb9 7666 8bbd 913d f73b 028b cb3d
00000050: ccd8 4f3d d9b8 96bd 5ad9 19bc f8cd 683d
00000060: 3bf2 eabd b6ac 5cbd e060 2d3d 35f1 063d
00000070: 21f3 4b3c b2d3 38bd 7911 8abb ca5b 05bd
00000080: 18bf 5b3d bc55 44bd c87e b2bc efe3 343c
00000090: 6264 a13b f09b 513d 9a3a b73c d02a 063d
000000a0: 230c cdbc 7801 f13c 0f5a 41bb 0254 2dbc
000000b0: a141 c63c 38dc b53c 4c14 5c3c eacc 0c3c
000000c0: 44cf bfbd fb5c ab3d 9122 e9ba 5b3c 723d
000000d0: e06d c43c 3445 f63c f8cc b73c 3abf 3a3d
000000e0: 35f9 acbc 3033 6cbd 571e 453d 2f87 e73c
000000f0: 3155 463d 0d6e aabc 13f5 81bd f6ec 2ebd

input_network.4.weight f4 [64]
0.121819615 0.24825777 0.3016092 0.33449996 0.4473711 0.18231371 0.17611647 0.3757221
0.39240614 0.13812491 0.32676578 0.3029186 0.31172246 0.21954091 0.35450107 0.63233274
0.44854578 0.780882 0.5209116 0.4517019 0.41458845 0.8379435 0.17155059 0.19326678
0.5801041 0.52276015 0.14350522 0.34477553 0.24951662 0.4096955 0.30292514 0.16016358
0.15960635 0.5120975 0.42472968 0.14795642 0.16220012 0.22938651 0.15701915 0.20696473
0.21353494 0.153703 0.2580698 0.34875995 0.19802238 0.1588386 0.1647042 0.14612377
0.4466375 0.38550428 0.33866364 0.21010616 0.18242453 0.16761938 0.22339174 0.51515615
0.3145445 0.48536935 0.26392052 0.1370692 0.33785254 0.57529026 0.5206071 0.3847102
00000000: 907c f93d 4937 7e3e 856c 9a3e 9443 ab3e
00000010: d30d e53e 72b0 3a3e e057 343e a65e c03e
00000020: 75e9 c83e 9e70 0d3e d84d a73e 2618 9b3e
00000030: 169a 9f3e 55cf 603e 2a81 b53e 8fe0 213f
00000040: cba7 e53e e2e7 473f 765a 053f 7945 e73e
00000050: f044 d43e 7783 563f f5aa 2f3e bae7 453e
00000060: b481 143f 9cd3 053f 08f3 123e 6b86 b03e
00000070: 4981 7f3e 9cc3 d13e 0119 9b3e ec01 243e
00000080: d96f 233e d218 033f 2b76 d93e e381 173e
00000090: ca17 263e 4ce4 6a3e a1c9 203e 90ee 533e
000000a0: e7a8 5a3e 5264 1d3e ba21 843e aa90 b23e
000000b0: 61c6 4a3e 96a6 223e 38a8 283e 78a1 153e
000000c0: acad e43e d160 c53e 5265 ad3e 1226 573e
000000d0: 7fcd 3a3e 6aa4 2b3e cec0 643e 46e1 033f
000000e0: fa0b a13e 5582 f83e 9720 873e de5b 0c3e
000000f0: 02fb ac3e 3946 133f 8246 053f bcf8 c43e

input_network.4.bias f4 [64]
0.005356644 -0.026490811 -0.007596622 -0.007944144 -0.048364904 -0.15922125 -0.15077788 0.043876648
-0.06889199 -0.16733596 -0.10102077 0.03664105 -0.11163429 -0.031073581 -0.033703677 -0.08353771
-0.028166689 0.02492243 0.002442352 -0.0069358298 0.0033003194 -0.016875187 -0.16445318 -0.021241028
-0.043822523 0.0529705 -0.1893412 -0.04310716 -0.10121269 0.008819911 -0.013351469 -0.17215538
-0.110926256 -0.0234454 0.052138474 -0.07417775 -0.123309545 -0.045621876 -0.119582385 -0.14588967
-0.018011829 -0.18568477 -0.036755722 -0.02491453 -0.028295264 -0.14535934 -0.14827333 -0.13726264
-0.023674814 -0.0035136743 -0.04744926 -0.101318784 -0.12523155 -0.13652878 -0.0985504 -0.09459142
-0.022628294 0.059974447 -0.09842229 -0.15373771 -0.047941 0.015615386 0.040101737 -0.08457617
00000000: c986 af3b 4203 d9bc 16ed f8bb 2828 02bc
00000010: 471a 46bd e50a 23be 8465 1abe 00b8 333d
00000020: 3e17 8dbd 1e5a 2bbe fae3 cebd ed14 163d
00000030: 85a0 e4bd 068e febc de0c 0abd d215 abbd
00000040: d4bd e6bc 202a cc3c de0f 203b f545 e3bb
00000050: 2c4a 583b d53d 8abc 6a66 28be aa01 aebc
00000060: 3f7f 33bd 98f7 583d a9e2 41be 2291 30bd
00000070: 9948 cfbd 6381 103c 1fc0 5abc 8049 30be
00000080: 4e2d e3bd 9110 c0bc 278f 553d 81ea 97bd
00000090: b789 fcbd 01de 3abd 9ce7 f4bd 1a64 15be
000000a0: 8b8d 93bc 2624 3ebe 2b8d 16bd 8e19 ccbc
000000b0: 78cb e7bc 14d9 14be f7d4 17be 948e 0cbe
000000c0: aff1 c1bc ac45 66bb 285a 42bd 3980 cfbd
000000d0: b33c 00be 33ce 0bbe cbd4 c9bd 25b9 c1bd
000000e0: f95e b9bc c4a7 753d a091 c9bd 6b6d 1dbe
000000f0: c85d 44bd add7 7f3c b841 243d 4536 adbd

input_network.6.weight f4 [64, 64]
0.015396226 -0.0039969063 -0.0062111313 0.016514726 -0.05697391 0.001967055 0.011944837 0.027578909
0.022039155 -0.009902886 -0.019650524 0.04177744 -0.051838845 -0.020461848 -0.0254542 -0.048264332
-0.007108433 -0.050420154 -0.05899705 -0.092274584 -0.054984756 0.079865605 0.023678953 -0.03811236
-0.07535893 0.0027340564 -0.033055488 -0.019833371 -0.060209244 0.052209515 -0.021812808 -0.010387109
-0.040734667 0.07297784 0.030618187 -0.009256157 0.029292697 -0.018118026 -0.011724287 -0.009788672
-0.015957583 -0.050356325 -0.02206876 -0.022133995 -0.0010217999 -0.009573483 0.010082206 -0.03406004
0.016175859 -0.0458876 -0.03645519 0.0057821306 -0.042398147 -0.019979661 -0.007733141 -0.015206023
-0.01020774 0.062306337 0.033145968 -0.02809451 -0.05634671 -0.0007945296 -0.010251229 -0.062357247
-0.050073985 0.044695877 0.028185237 -0.12822102 0.05029742 0.016777363 -0.010491701 0.04780617
0.050892167 -0.014653744 -0.0061047827 0.17197081 -0.16017729 0.05516317 0.0938827 -0.13151385
-0.060704257 0.10316664 0.12721187 0.054204877 -0.15874784 0.032149147 0.021720955 0.08932469
0.05164738 0.33329818 -0.006281206 0.0715345 -0.097229995 0.1952894 0.06843189 -0.0149367675
-0.007780401 -0.008927273 0.11212571 -0.004063888 0.017345252 -0.071023464 -0.04401716 0.012729905
0.07686828 -0.05262983 -0.012488385 0.07412231 0.035699222 -0.013680268 0.020978851 -0.0058113285
-0.03503295 0.036996946 -0.15276013 -0.04136064 -0.0076593026 0.052598238 -0.027771445 -0.14020589
-0.04416694 0.18913652 0.003472516 -0.019587329 -0.06776138 0.18292335 0.29042554 0.021076027
0.1040912 -0.06619972 -0.04991514 0.274746 -0.022830455 0.0005582911 -0.04437476 0.14979227
0.08537687 0.012153648 0.04451946 0.07076463 -0.07207312 0.0062877317 0.0055346247 -0.058127098
-0.06511442 0.09295251 -0.09293124 -0.08481885 0.32716042 -0.02520553 0.012563002 0.031987242
-0.100874834 0.007674283 0.0064516547 0.040102687 -0.028394463 0.036298104 -0.077268615 0.008139508
0.015292683 0.009014886 0.058177724 0.003888383 -0.012967829 0.12076659 0.0058363597 -0.007772576
0.024273861 -0.008716178 0.021495117 -0.08720498 -0.027929274 0.030185651 0.021686133 0.0045365323
0.08032759 -0.09031566 0.24866459 0.014352563 -0.012238893 0.010632873 -0.06560266 -0.11925828
-0.07288849 0.023685033 -0.029504463 0.0033422578 0.21595182 -0.024961162 -0.048377655 -0.03516287
0.026059614 -0.04718321 -0.06819547 0.05453161 -0.15663415 -0.0017118796 0.030204786 0.053795736
0.037224192 0.0063622836 0.01298775 0.05985418 -0.12943695 0.09561661 -0.077770635 0.1247567
-0.043232217 0.056731023 -0.22008479 -0.0947756 0.090882085 -0.26788172 0.008818107 0.06263162
-0.13242938 0.059609383 0.015300115 -0.056037225 -0.12883216 -0.017349571 -0.056266725 -0.00032746227
-0.03319453 -0.038291465 0.17760894 0.032415427 -0.010732034 -0.024452621 0.0040408904 -0.0034574326
0.09636151 0.0115611125 0.06512604 -0.11350133 0.09593848 -0.0056041884 -0.03311505 0.015042935
-0.08961958 -0.05563171 0.12028009 -0.044019967 0.041805718 0.014683348 -0.067648664 -0.0056261723
-0.026643775 0.25602368 -0.05985478 0.04499409 0.06182595 -0.10747723 0.016738588 0.008042107
00000000: 7440 7c3c 7bf8 82bb bf86 cbbb e449 873c
00000010: 7a5d 69bd b5e9 003b 47b4 433c 2aed e13c
00000020: 758b b43c b73f 22bc 23fa a0bc d21e 2b3d
00000030: f854 54bd 9b9f a7bc 5485 d0bc d2b0 45bd
00000040: dced e8bb 5d85 4ebd e4a6 71bd 75fa bcbd
00000050: b237 61bd 9490 a33d 5dfa c13c b51b 1cbd
00000060: c855 9abd db2d 333b 3165 07bd 9879 a2bc
00000070: f89d 76bd a5d9 553d c6b0 b2bc b12e 2abc
00000080: 65d9 26bd 6875 953d fed2 fa3c 23a7 17bc
00000090: 3df7 ef3c 416c 94bc 3917 40bc ab60 20bc
000000a0: 7ab9 82bc 6f42 4ebd 8bc9 b4bc 5a52 b5bc
000000b0: eaed 85ba 19da 1cbc d62f 253c 8a82 0bbd
000000c0: 3c83 843c a3f4 3bbd 0a52 15bd 0778 bd3b
000000d0: aea9 2dbd 63ac a3bc 4a66 fdbb af22 79bc
000000e0: 5d3e 27bc ee34 7f3d 11c4 073d 7526 e6bc
000000f0: cfcb 66bd fb47 50ba c5f4 27bc 506a 7fbd
00000100: 611a 4dbd 0613 373d bae4 e63c 5f4c 03be
00000110: ab04 4e3d ae70 893c 62e5 2bbc 67d0 433d
00000120: 4e74 503d 4216 70bc a10a c8bb 1e19 303e
00000130: 8405 24be c7f2 613d 9345 c03d 91ab 06be
00000140: 07a5 78bd 0849 d33d d443 023e ef05 5e3d
00000150: cb8e 22be d3ae 033d 25f0 b13c ddef b63d
00000160: 348c 533d 0fa6 aa3e 93d2 cdbb ae80 923d
00000170: 8520 c7bd f2f9 473e 0526 8c3d 58b9 74bc
00000180: bcf2 febb b243 12bc 2aa2 e53d 5d2a 85bb
00000190: a117 8e3c c074 91bd 564b 34bd 1791 503c
000001a0: 1e6d 9d3d 6092 57bd 159c 4cbc 70cd 973d
000001b0: 5939 123d 3423 60bc d7db ab3c f56c bebb
000001c0: b67e 0fbd 1c8a 173d 276d 1cbe c669 29bd
000001d0: e3fa fabb 4071 573d f180 e3bc 2292 0fbe
000001e0: 65e8 34bd 01ad 413e 2793 633b 9b75 a0bc
000001f0: 7ac6 8abd 4250 3b3e a8b2 943e a2a7 ac3c
00000200: c42d d53d b893 87bd d173 4cbd 82ab 8c3e
00000210: ef06 bbbc 485a 123a 4fc2 35bd 2563 193e
00000220: 12da ae3d 1820 473c 0a5a 363d 0ced 903d
00000230: 129b 93bd 5109 ce3b cc5b b53b ae16 6ebd
00000240: b65a 85bd e35d be3d bc52 bebd 81b5 adbd
00000250: 9281 a73e d47b cebc 0dd5 4d3c 0e05 033d
00000260: 7797 cebd 8d78 fb3b 6768 d33b b742 243d
00000270: 819b e8bc 52ad 143d 023f 9ebd 925b 053c
00000280: 298e 7a3c 2cb3 133c c44b 6e3d 3ed4 7e3b
00000290: 0477 54bc 7954 f73d ef3e bf3b 18b1 febb
000002a0: fad9 c63c 4dce 0ebc 8716 b03c 8698 b2bd
000002b0: efcb e4bc e647 f73c 1ea7 b13c 31a7 943b
000002c0: cb82 a43d 6bf7 b8bd eea1 7e3e 0327 6b3c
000002d0: a385 48bc 8035 2e3c b05a 86bd af3d f4bd
000002e0: 9046 95bd 1d07 c23c 58b3 f1bc c809 5b3b
000002f0: 7922 5d3e 5a7b ccbc a627 46bd f106 10bd
00000300: f97a d53c 2e43 41bd 11aa 8bbd 8a5c 5f3d
00000310: b464 20be 2661 e0ba 0770 f73c eb58 5c3d
00000320: 6578 183d b47a d03b 92ca 543c a829 753d
00000330: 1f8b 04be a4d2 c33d 3646 9fbd 7180 ff3d
00000340: 4414 31bd ca5e 683d e85d 61be b619 c2bd
00000350: 6320 ba3d cb27 89be d279 103c 0245 803d
00000360: 919b 07be f828 743d 55ad 7a3c 4a87 65bd
00000370: 94ec 03be b020 8ebc f077 66bd 3eaf abb9
00000380: fdf6 07bd 83d7 1cbd 1edf 353e 0ac6 043d
00000390: 6ad5 2fbc dd50 c8bc 7269 843b 1896 62bb
000003a0: 2f59 c53d d26a 3d3c cd60 853d 6373 e8bd
000003b0: 657b c43d 57a3 b7bb a6a3 07bd a476 763c
000003c0: 788a b7bd 13de 63bd 6855 f63d 484e 34bd
000003d0: 793c 2b3d 6d92 703c 628b 8abd c15b b8bb
000003e0: 0c44 dabc 8915 833e 492a 75bd b94b 383d
000003f0: 353d 7d3d 061d dcbd 5d1f 893c 0bc3 033c

input_network.6.bias f4 [64]
0.004756306 0.063549586 0.03519333 0.0140441265 -0.035095274 0.13395703 -0.009257831 -0.056211952
0.0039595906 -0.025747972 -0.022318892 0.0027435268 -0.05062662 -0.034919944 -0.039924856 -0.031053402
-0.022602947 -0.039179347 -0.015200915 0.21013948 0.06325498 0.08396145 -0.039700586 -0.041238166
-0.041707993 -0.05535544 -0.036303554 -0.029237224 -0.05122626 -0.031991154 0.1485747 0.008863229
-0.00074992183 0.011592272 -0.02441955 -0.023851374 -0.028299198 -0.044187296 0.056223743 -0.02356337
-0.03302557 -0.029021963 -0.03241429 -0.02552796 -0.013435966 -0.029020378 -0.05574246 0.012201265
-0.016577428 -0.013749471 0.015651781 -0.045726392 -0.049834874 -0.03227645 0.02670149 -0.027258215
-0.047709722 -0.016870677 -0.014169229 -0.062151484 -0.01987203 -0.021912536 -0.006190807 -0.0105642155
00000000: c9da 9b3b 4926 823d e226 103d 5619 663c
00000010: 10c0 0fbd 082c 093e 28ae 17bc 813e 66bd
00000020: 74bf 813b 69ed d2bc 1cd6 b6bc becc 333b
00000030: dc5d 4fbd 3708 0fbd 3f88 23bd b463 febc
00000040: d129 b9bc 867a 20bd 420d 79bc ce2e 573e
00000050: d48b 813d fbf3 ab3d 159d 22bd 5ae9 28bd
00000060: 00d6 2abd 63bc 62bd 09b3 14bd e782 efbc
00000070: a0d2 51bd 2809 03bd f723 183e 1437 113c
00000080: 6796 44ba 83ed 3d3c 820b c8bc f563 c3bc
00000090: b8d3 e7bc bdfd 34bd de4a 663d f807 c1bc
000000a0: d245 07bd 78bf edbc d9c4 04bd 0320 d1bc
000000b0: 8722 5cbc 25bc edbc 3552 64bd d1e7 473c
000000c0: 63cd 87bc 7645 61bc 2a38 803c 994b 3bbd
000000d0: a71f 4cbd 5034 04bd 15bd da3c 9f4c dfbc
000000e0: 456b 43bd 6034 8abc 0e26 68bc 8e92 7ebd
000000f0: abca a2bc eb81 b3bc 41dc cabb 8815 2dbc

input_network.7.weight f4 [64]
0.28115246 1.930407 2.7110977 1.1923833 0.34560582 1.7230046 0.392481 0.32724136
0.31514558 0.33319765 0.30974644 1.1308349 0.3080215 0.2769448 0.26316407 0.43021226
1.5090513 0.28071815 0.624388 1.6260936 0.86632776 1.5809695 0.2866223 0.28881884
0.29150528 0.5107342 0.318598 0.35717428 0.29255378 0.33878157 1.7795377 1.2957442
0.31744435 2.5269353 0.29271707 0.48454872 0.46569958 0.303028 2.9010255 0.29486358
0.3233921 0.29320243 0.32158378 0.73322976 0.26749638 0.3182051 0.26240784 0.8906692
0.5380044 0.90339965 0.5021193 0.31391898 1.945322 0.44046298 1.7718432 0.3230721
0.4804962 0.28758758 1.3180395 0.24435933 1.4081615 0.34870163 0.3960696 0.33123204
00000000: 37f3 8f3e 9417 f73f a082 2d40 04a0 983f
00000010: 3ff3 b03e 6a8b dc3f 45f3 c83e 2e8c a73e
00000020: c35a a13e e298 aa3e 1697 9e3e 33bf 903f
00000030: feb4 9d3e b5cb 8d3e 71bd 863e c844 dc3e
00000040: 9828 c13f 4aba 8f3e e4d7 1f3f d623 d03f
00000050: a8c7 5d3f 355d ca3f 28c0 923e 10e0 933e
00000060: 2e40 953e 7abf 023f 471f a33e 8cdf b63e
00000070: 9cc9 953e c774 ad3e e4c7 e33f f2da a53f
00000080: 1188 a23e 4fb9 2140 03df 953e c516 f83e
00000090: 2d70 ee3e 7c26 9b3e 67aa 3940 5cf8 963e
000000a0: a693 a53e a11e 963e a1a6 a43e f2b4 3b3f
000000b0: 49f5 883e c7eb a23e 525a 863e e602 643f
000000c0: a8ba 093f 3345 673f e48a 003f fdb9 a03e
000000d0: 5000 f93f 5d84 e13e c2cb e23f b569 a53e
000000e0: 9903 f63e ae3e 933e 85b5 a83f 5539 7a3e
000000f0: a33e b43f 0589 b23e a2c9 ca3e 3f97 a93e

input_network.7.bias f4 [64]
-0.050374914 0.6705884 0.9031498 0.2566579 0.0070512565 1.0009122 0.047814675 0.002455919
-0.028959863 0.00461098 -0.024002805 0.3636187 -0.017884823 -0.043164544 0.053227115 0.032089327
0.5662498 -0.038743127 0.23840241 1.2216462 0.41669828 0.8028205 -0.042647112 -0.011553565
-0.02598442 0.35838506 -0.0008760779 0.010736072 -0.04290241 -0.0005357686 0.8427053 0.6104004
-0.028525343 0.46667266 -0.032973062 0.09938455 0.15945636 -0.020329801 1.3441405 0.017015899
-0.004647718 -0.056539226 -0.02258428 0.16265944 -0.040910866 -0.0015575056 0.04182925 0.38157067
0.4380791 0.17237554 0.31906486 -0.0024483465 0.3453013 0.053840686 0.5952076 -0.0012898373
0.2021557 -0.038057867 0.6454562 0.16308455 0.46988627 -0.0062545976 0.25522202 0.0027446582
00000000: ed55 4ebd aeab 2b3f d334 673f aa68 833e
00000010: 3a0e e73b e41d 803f 52d9 433d 7cf3 203b
00000020: 3c3d edbc b417 973b 88a1 c4bc 3b2c ba3e
00000030: 3183 92bc 4ecd 30bd ad04 5a3d 1970 033d
00000040: bff5 103f 1db1 1ebd c31f 743e e75e 9c3f
00000050: 7a59 d53e a585 4d3f bdae 2ebd 2a4b 3dbc
00000060: 47dd d4bc 3f7e b73e 98a8 65ba 5ae6 2f3c
00000070: 70ba 2fbd d272 0cba 89bb 573f 3343 1c3f
00000080: fbad e9bc b8ef ee3e c30e 07bd 208a cb3d
00000090: 8748 233e af8a a6bc cc0c ac3f ed64 8b3c
000000a0: e24b 98bb ad95 67bd ab02 b9bc 3290 263e
000000b0: 2792 27bd 3725 ccba 2655 2b3d 3b5d c33e
000000c0: e74b e03e 3783 303e 785c a33e 7074 20bb
000000d0: 55cb b03e 0d88 5c3d 865f 183f c20f a9ba
000000e0: e701 4f3e 91e2 1bbd 9e3c 253f a3ff 263e
000000f0: ef94 f03e 5ef3 ccbb 76ac 823e b9df 333b

edge_network.network.0.weight f4 [67, 134]
0.05748259 -0.29273778 0.0592969 -0.15696202 -0.23389015 0.16339076 -0.22172128 -0.042715214
0.19615002 0.007726838 -0.094362564 0.30621696 0.042761732 0.11489331 0.07656746 -0.028628558
-0.21931311 0.28262338 -0.040570542 0.110789984 -0.09760922 0.2692034 -0.023691192 0.18751284
-0.1626262 0.06016331 0.13738583 -0.15983133 -0.038816225 0.27996916 0.2999835 -0.11767424
-0.075934745 -0.103827484 -0.0041528842 0.05110081 0.113272265 0.08599291 -0.13275875 -0.12696706
0.24470457 0.07471197 -0.0644894 -0.1847377 -0.038087323 0.17741786 0.01915844 -0.19067162
0.11949306 -0.19572006 -0.13088512 0.01667926 0.1245395 -0.20127167 -0.16653487 -0.24246772
0.37272513 0.026561756 -0.3683878 -0.09762816 0.14838305 -0.17687388 -0.02122206 0.30860817
0.118659094 -0.2809041 0.016661743 -0.025017247 0.19814017 0.33752984 0.17389187 0.20572686
-0.28475663 0.33999202 0.2594111 0.037308212 0.05950978 0.09312191 -0.20333858 0.22686455
-0.3478437 -0.005277861 0.07565725 0.2764009 -0.43198246 -0.23070395 -0.23242912 0.09186233
-0.13440555 -0.04734644 -0.2489133 0.15599868 -0.13068233 -0.24053709 0.10293656 -0.039562996
-0.26622027 -0.308636 0.21604715 -0.024069412 0.2083629 -0.0022755237 0.031192586 -0.047207557
-0.23713395 0.20722531 0.20977454 -0.27949136 -0.15430953 0.013165086 0.47261736 -0.16846232
-0.04817565 -0.13160779 0.04310038 -0.31638598 0.14547504 0.237338 -0.16171321 -0.11138739
0.170951 0.26646358 0.057472236 -0.30791077 -0.04220392 0.12632619 0.039730065 0.021990264
0.5035488 0.12499209 -0.41120875 -0.14993979 0.27733985 -0.02282825 -0.07267411 0.17826413
0.038346436 0.19604054 0.010538626 0.08364893 0.10924411 0.03878133 -0.073155336 0.02049863
0.12691003 -0.07972343 0.059169892 -0.094198704 -0.11798226 -0.08287355 0.029798593 -0.057714105
-0.102388576 -0.0015066867 -0.07884773 0.0019081049 -0.10201622 0.100839294 -0.11833844 0.031453095
-0.013113442 -0.11029464 -0.001296609 -0.17078668 0.029984862 -0.14996214 -0.06619853 0.10800486
0.029664615 0.005645043 0.026172077 -0.018559817 -0.0018593301 0.0027510037 -0.016625676 0.009606517
-0.04754539 0.012234809 -0.058614295 0.12346915 -0.022511294 0.044274956 0.089669906 0.17242977
0.0958211 0.19339076 -0.015390147 0.07649607 -0.018999288 0.12235227 -0.16085564 -0.06470677
0.21159443 -0.011494048 -0.041920625 0.20407188 0.10381435 -0.09012663 0.10190944 -0.08753057
0.05049781 0.18454808 -0.0009940765 -0.32922366 -0.24970981 -0.22521214 0.10200096 -0.19376294
-0.24247934 0.06062774 0.14026058 -0.3257997 0.18182296 -0.17043364 0.1737581 0.10105591
0.049363595 -0.074892305 0.24954812 0.068364434 0.003715277 0.06650766 -0.10439645 -0.018621018
0.10869038 -0.362706 0.0071981447 0.13575749 -0.1343987 -0.029771823 0.2952891 0.12134219
0.23237324 0.008463012 0.0048548453 -0.016645728 0.03027331 0.041726656 -0.081742555 0.14021525
-0.17999005 0.21023369 0.10476574 -0.019031307 -0.31398988 -0.03331387 -0.26636282 0.0015147089
-0.01921023 -0.117453605 -0.1886189 -0.2624926 -0.09116523 0.06515387 -0.025324885 -0.00022483172
00000000: dd72 6b3d bae1 95be 4ee1 723d a7ba 20be
00000010: e680 6fbe e84f 273e e70a 63be 26f6 2ebd
00000020: 8ddb 483e 6a31 fd3b 2941 c1bd 78c8 9c3e
00000030: ed26 2f3d 2f4d eb3d 67cf 9c3d 7086 eabc
00000040: 9e93 60be 03b4 903e 4c2d 26bd dce5 e23d
00000050: 58e7 c7bd 07d5 893e 0814 c2bc 5e03 403e
00000060: 7c87 26be ce6d 763d dfae 0c3e d3aa 23be
00000070: c3fd 1ebd 1e58 8f3e 7097 993e 31ff f0bd
00000080: ad83 9bbd 81a3 d4bd eb14 88bb 154f 513d
00000090: 4afb e73d 0d1d b03d e9f1 07be a703 02be
000000a0: d693 7a3e 9702 993d 0513 84bd e12b 3dbe
000000b0: 7401 1cbd 07ad 353e 29f2 9c3c 6c3f 43be
000000c0: c7b8 f43d d76a 48be c006 06be f2a2 883c
000000d0: 910e ff3d 291a 4ebe 1e88 2abe 7549 78be
000000e0: d4d5 be3e 0a98 d93c 539d bcbe 46f1 c7bd
000000f0: baf1 173e 6d1e 35be e3d9 adbc e401 9e3e
00000100: 8a03 f33d aad2 8fbe 357e 883c f8f0 ccbc
00000110: 42e5 4a3e b6d0 ac3e b610 323e 10aa 523e
00000120: 9fcb 91be 6f13 ae3e 88d1 843e 7fd0 183d
00000130: 87c0 733d b3b6 be3d fd37 50be 2e4f 683e
00000140: 9218 b2be e8f1 acbb 30f2 9a3d 6b84 8d3e
00000150: ce2c ddbe a83d 6cbe e601 6ebe 5122 bc3d
00000160: 9ca1 09be 57ee 41bd 21e3 7ebe 1ebe 1f3e
00000170: 97d1 05be 5b4f 76be 67d0 d23d cf0c 22bd
00000180: 064e 88be 8a05 9ebe 773b 5d3e 372d c5bc
00000190: 165d 553e f420 15bb 9887 ff3c b65c 41bd
000001a0: 3ed3 72be df32 543e 23cf 563e 7e19 8fbe
000001b0: 5103 1ebe 5fb2 573c e7fa f13e 6381 2cbe
000001c0: d553 45bd 31c4 06be 068a 303d 58fd a1be
000001d0: 69f7 143e bc08 733e 2698 25be 121f e4bd
000001e0: c70d 2f3e ea6d 883e 0268 6b3d 7ba6 9dbe
000001f0: 05de 2cbd a75b 013e febb 223d ed24 b43c
00000200: 93e8 003f dafb ff3d f489 d2be d189 19be
00000210: 7dff 8d3e 4f02 bbbc 2ad6 94bd df8a 363e
00000220: 2711 1d3d dabe 483e 34aa 2c3c 2150 ab3d
00000230: 60bb df3d 2cd9 1e3d 77d2 95bd beec a73c
00000240: b4f4 013e 0a46 a3bd 215c 723d 40eb c0bd
00000250: afa0 f1bd 9cb9 a9bd 2e1c f43c a065 6cbd
00000260: 1ab1 d1bd 047c c5ba eb7a a1bd 6019 fa3a
00000270: e1ed d0bd d584 ce3d 6d5b f2bd f6d4 003d
00000280: c3d9 56bc 28e2 e1bd fbf2 a9ba b4e2 2ebe
00000290: d0a2 f53c ad8f 19be 1893 87bd a731 dd3d
000002a0: 3503 f33c 0efa b83b d366 d63c c20a 98bc
000002b0: c4b4 f3ba 2f4a 343b 9232 88bc a764 1d3c
000002c0: f4be 42bd 8274 483c 8b15 70bd 65dd fc3d
000002d0: 9b69 b8bc a859 353d dba4 b73d 6e91 303e
000002e0: da3d c43d 3a08 463e f526 7cbc f9a9 9c3d
000002f0: 65a4 9bbc d493 fa3d 57b7 24be fc84 84bd
00000300: 36ac 583e 8851 3cbc f6b4 2bbd 38f8 503e
00000310: 9e9c d43d 5094 b8bd e5b5 d03d 3a43 b3bd
00000320: cbd6 4e3d 2cfa 3c3e ac4b 82ba 0190 a8be
00000330: eeb3 7fbe 039e 66be e1e5 d03d cb69 46be
00000340: 814c 78be cb54 783d 78a0 0f3e 38cf a6be
00000350: cc2f 3a3e 2886 2ebe a5ed 313e 67f6 ce3d
00000360: 7b31 4a3d 2361 99bd 8b89 7f3e a702 8c3d
00000370: 017c 733b 2b35 883d cecd d5bd 1b8b 98bc
00000380: 1099 de3d 9ab4 b9be 6ade eb3b 0304 0b3e
00000390: d09f 09be 0ae4 f3bc 2230 973e 4182 f83d
000003a0: 40f3 6d3e 72a8 0a3c 6515 9f3b 9f5c 88bc
000003b0: bcff f73c 92e9 2a3d a468 a7bd 9694 0f3e
000003c0: 504f 38be 8047 573e 6c8f d63d 8be7 9bbc
000003d0: 48c3 a0be 2074 08bd b560 88be 3289 c63a
000003e0: c65e 9dbc 848b f0bd 5025 41be 6e65 86be
000003f0: d6b4 babd 646f 853d 2276 cfbc cec0 6bb9

edge_network.network.0.bias f4 [67]
-0.02311672 0.04972038 -0.045424182 0.14240189 -0.059252683 0.23262678 0.14195262 0.05124901
-0.073539674 0.231381 0.037687156 0.021375645 -0.08377892 0.10843669 0.03323744 0.11727133
-0.3301356 -0.07054243 0.07731922 -0.11670588 0.22103688 0.19903335 -0.027059976 -0.011230646
0.26326567 0.028666258 0.09452334 -0.018864676 0.016837375 -0.05881568 0.16038713 0.0520545
-0.14908403 0.21993035 0.17275079 0.040469054 -0.0018484184 0.059055366 -0.010929949 -0.042655293
-0.06698052 0.20237544 -0.15943518 -0.1675277 0.35141724 -0.096118875 0.17769791 -0.32016423
-0.0028293466 -0.03928459 -0.102884464 -0.11624651 0.109576315 0.06894653 -0.13997133 0.0360781
0.019254021 0.0016983675 -0.012979866 0.07921535 -0.012738139 0.19129746 0.18252079 0.033910643
-0.05241113 -0.49306512 -0.01941411
00000000: 475f bdbc 99a7 4b3d b50e 3abd cdd1 113e
00000010: f1b2 72bd b735 6e3e 075c 113e 7bea 513d
00000020: f89b 96bd 24ef 6c3e d95d 1a3d fa1b af3c
00000030: 4894 abbd 0e14 de3d fb23 083d f32b f03d
00000040: 8907 a9be 8d78 90bd 8a59 9e3d 7e03 efbd
00000050: 7e57 623e 66cf 4b3e e2ac ddbc be00 38bc
00000060: c2ca 863e 80d5 ea3c 7495 c13d 188a 9abc
00000070: 89ee 893c b6e8 70bd 863c 243e 1937 553d
00000080: 7ca9 18be 6c35 613e 95e5 303e e1c2 253d
00000090: a146 f2ba 0ae4 713d 8713 33bc 51b7 2ebd
000000a0: 152d 89bd 823b 4f3e fa42 23be 628c 2bbe
000000b0: f6ec b33e f9d9 c4bd 71f6 353e 91ec a3be
000000c0: 8f6c 39bb e1e8 20bd 17b5 d2bd a612 eebd
000000d0: 8c69 e03d d733 8d3d a554 0fbe a1c6 133d
000000e0: 9cba 9d3c c29b de3a 81a9 54bc a83b a23d
000000f0: a1b3 50bc 7be3 433e bbe6 3a3e e3e5 0a3d
00000100: 0ead 56bd 0873 fcbe 570a 9fbc

edge_network.network.1.weight f4 [67]
0.35290334 0.28701714 0.32564595 0.3672591 0.34231296 0.4649619 0.34499088 0.27789992
0.36845624 0.37683633 0.3374658 0.29891658 0.41121858 0.31105474 0.35010237 0.29220277
0.28885067 0.38285765 0.2567707 0.41584903 0.33442146 0.26858082 0.3852846 0.3903903
0.9570769 0.31382212 0.22162628 0.3352466 0.55369234 0.35245627 0.261945 0.22175884
0.31313327 0.27500847 0.32700446 0.30698678 0.41342583 0.45679954 0.35946485 0.40768182
0.3379367 0.2614201 0.36381468 0.2393249 0.25773278 0.34633845 0.3585436 0.29648566
0.35886034 0.3750333 0.29652905 0.31789193 0.25764215 0.24444218 0.29797542 0.31842536
0.3720995 0.43665436 0.3472215 0.3451573 0.31428733 0.24826112 0.33698985 0.41745245
0.40475193 0.14533107 0.33848634
00000000: bfaf b43e e9f3 923e 11bb a63e 6209 bc3e
00000010: a543 af3e 7c0f ee3e a5a2 b03e e648 8e3e
00000020: 4ca6 bc3e b1f0 c03e 51c8 ac3e 980b 993e
00000030: 3e8b d23e 9142 9f3e 9e40 b33e 9a9b 953e
00000040: 3ce4 933e eb05 c43e 7377 833e 2aea d43e
00000050: 4a39 ab3e 6d83 893e 0644 c53e 3de1 c73e
00000060: fe02 753f 4bad a03e 00f2 623e 71a5 ab3e
00000070: c8be 0d3f 2675 b43e a81d 863e c014 633e
00000080: 0153 a03e e9cd 8c3e 216d a73e 5f2d 9d3e
00000090: 8dac d33e a1e1 e93e c70b b83e acbb d03e
000000a0: 0a06 ad3e dbd8 853e eb45 ba3e 9611 753e
000000b0: 8df5 833e 4653 b13e 0793 b73e f8cc 973e
000000c0: 8bbc b73e 5d04 c03e a8d2 973e bbc2 a23e
000000d0: ace9 833e 0d4f 7a3e 3c90 983e a608 a33e
000000e0: d383 be3e 2991 df3e 04c7 b13e 75b8 b03e
000000f0: 45ea a03e 2a38 7e3e ef89 ac3e 54bc d53e
00000100: a53b cf3e abd1 143e 154e ad3e

edge_network.network.1.bias f4 [67]
0.0033216414 -0.1362821 -0.04155106 0.033427734 -0.060333323 -0.012429129 -0.083729535 -0.095468104
-0.07166464 -0.16843231 0.099443555 -0.08133964 -0.028069066 -0.16278532 -0.08770986 -0.11561601
-0.07430368 -0.05850742 -0.08265015 -0.04659817 -0.15256159 -0.15839614 -0.0059636356 -0.077162266
-0.021397427 0.03611841 0.0063326363 -0.071367554 -0.0316501 -0.102278225 -0.1155138 -0.007984111
0.009664753 -0.13243034 -0.07381424 0.00363956 -0.027909994 0.004944797 -0.08101489 -0.024145637
-0.07915111 -0.14930817 -0.0038068646 -0.13138735 -0.14215825 -0.0318893 -0.09133197 0.037712686
-0.095219254 -0.0334121 -0.088296525 -0.018782152 -0.17340076 -0.10888555 -0.124603406 -0.11416744
-0.0722523 -0.05740691 -0.07714836 -0.06263908 -0.075398326 -0.14334896 -0.013835198 -0.029380461
-0.008011438 0.094836816 -0.100383006
00000000: e5af 593b 898d 0bbe 7231 2abd 85eb 083d
00000010: 1320 77bd 8ca3 4bbc 647a abbd c884 c3bd
00000020: e9c4 92bd 8579 2cbe 10a9 cb3d 6695 a6bd
00000030: 19f1 e5bc 32b1 26be 3aa1 b3bd 16c8 ecbd
00000040: 872c 98bd 7aa5 6fbd 7b44 a9bd b9dd 3ebd
00000050: 1b39 1cbe 9932 22be 9a6a c3bb 4007 9ebd
00000060: a849 afbc e6f0 133d 0182 cf3b 2729 92bd
00000070: 89a3 01bd 3f77 d1bd 8092 ecbd cacf 02bc
00000080: ea58 1e3c d29b 07be ec2b 97bd af85 6e3b
00000090: 80a3 e4bc f707 a23b 22eb a5bd 12cd c5bc
000000a0: fa19 a2bd 3ee4 18be 977c 79bb 688a 06be
000000b0: ef91 11be 5b9e 02bd 420c bbbd 9e78 1a3d
000000c0: 5002 c3bd 20db 08bd cfd4 b4bd 07dd 99bc
000000d0: f88f 31be 63ff debd 1230 ffbd 9ed0 e9bd
000000e0: 04f9 93bd 8223 6bbd f6ff 9dbd eb48 80bd
000000f0: 706a 9abd 12ca 12be 07ad 62bc 4baf f0bc
00000100: 6842 03bc ce39 c23d 9b95 cdbd

edge_network.network.3.weight f4 [67, 67]
-0.024328554 0.028486535 -0.017049307 0.0050891396 0.039045937 0.1440597 0.04809392 0.08066487
-0.0024871812 -0.00090569415 -0.06285118 -0.004653225 -0.024926417 0.06878983 0.05136589 0.06429532
0.017221998 0.053166803 0.012481611 -0.03553969 0.056346186 0.04283412 0.08500974 -0.02929241
0.035935365 -0.030261636 -0.00998587 0.042980343 0.082457304 0.014213565 -0.025610128 -0.06317097
0.06947681 0.099911086 0.05291044 -0.005104905 0.040873542 -0.03594874 -0.003839988 0.049596265
0.012236727 0.026881937 -0.01350489 -0.015843404 0.014623372 0.020282509 0.05335811 0.10412172
-0.045202695 0.029976161 -0.026526842 0.08565889 0.10929904 0.028549854 -0.025087683 0.05928404
0.08668826 0.008477457 0.07692727 -0.075817496 0.016863259 -0.010364257 -0.12762539 0.09123624
-0.0050147767 -0.0076442547 0.029381506 -0.077601574 0.0047325916 0.03173508 -0.03760589 -0.03449041
0.029549358 0.043899115 -0.15625542 0.010243096 -0.033123102 -0.00716298 -0.009780284 0.066517696
-0.13481592 0.0060049854 -0.01835818 0.12472464 -0.06093355 -0.019875549 0.115043595 -0.15718178
-0.037412316 0.11530612 0.07633183 -0.120245494 0.05587756 -0.030235646 -0.0697987 -0.011133359
0.011574668 -0.028321758 0.06919201 -0.045432184 -0.080336526 0.0019227659 -0.029001165 -0.07987743
0.0796777 0.17476626 -0.051973734 -0.034438726 0.0005603381 0.12124701 -0.0817647 0.038754087
-0.10195128 -0.2231074 -0.033666473 0.14657928 -0.032457408 0.13127038 -0.04333955 -0.13906296
-0.03890896 0.02055292 0.046310402 0.06071375 -0.09182408 -0.057645414 0.012310379 0.05829679
0.03878455 0.12846795 -0.031967416 0.068695635 -0.0664733 -0.014740202 -0.06082056 0.21916947
0.07183427 -0.016937349 -0.04304592 0.45715678 0.010794289 -0.0706 0.023559507 -0.101074554
-0.07177639 0.14623854 0.107074 -0.063196816 -0.02354118 0.038383543 -0.08113876 0.022131704
0.07285311 0.060491 -0.053345215 0.03813887 -0.34796694 0.033253912 0.051107194 0.02530834
-0.041477825 -0.07034133 -0.06431474 -0.029685289 0.020106778 0.08030572 0.3495582 -0.016034603
0.10147911 0.09461191 0.002442182 -0.06421933 0.0039585303 -0.04295841 -0.18392724 0.13864069
-0.0039038213 0.03127252 -0.4520852 -0.08314837 -0.13664047 -0.20926231 0.13070129 -0.020577734
0.08876684 -0.0762401 -0.020023143 0.06537023 0.03940054 0.100145 -0.00013005383 0.30798444
-0.03934685 -0.06872439 0.018009618 -0.1547274 -0.0013853039 -0.08626602 0.13640688 -0.22002941
-0.12516579 0.051662706 0.039777722 -0.016956458 0.050894488 -0.0025139353 -0.08094833 -0.08743645
-0.04254812 0.04524402 0.045819975 0.0007408655 0.10420221 -0.03562373 0.11973972 -0.0005507221
-0.040125877 -1.0652597 0.02158212 -0.040846102 0.1004704 0.0034796796 0.0013460533 0.0061531225
-0.020943727 -0.08136431 -0.02360862 -0.028256303 -0.009575939 0.09148141 -0.04500926 0.093879715
0.098476715 -0.069107234 -0.10950964 0.0034200067 -0.061948277 -0.006972883 -0.07347596 0.056158982
-0.062641636 0.01938544 0.085357614 -0.013127128 -0.05499003 0.063741855 0.062767625 -0.2447503
0.07280555 0.027611338 0.026622552 0.033596933 -0.1677621 -0.088040814 0.16245969 -0.016172146
00000000: ad4c c7bc 985c e93c fdaa 8bbc ccc2 a63b
00000010: a2ee 1f3d 6384 133e 21fe 443d a033 a53d
00000020: faff 22bb 1b6c 6dba 1fb8 80bd 157a 98bb
00000030: 7c32 ccbc afe1 8c3d 0a65 523d 44ad 833d
00000040: 2615 8d3c 6fc5 593d ac7f 4c3c 1192 11bd
00000050: 42cb 663d d572 2f3d 9619 ae3d a3f6 efbc
00000060: f630 133d 40e7 f7bc c69b 23bc 280c 303d
00000070: 60df a83d 03e0 683c 55cc d1bc c85f 81bd
00000080: dc49 8e3d 2f9e cc3d 9eb8 583d 0c47 a7bb
00000090: 046b 273d fc3e 13bd 4fa8 7bbb 7425 4b3d
000000a0: 8e7c 483c 8237 dc3c 9d43 5dbc 07ca 81bc
000000b0: de96 6f3c 8127 a63c 098e 5a3d c53d d53d
000000c0: 7626 39bd 9190 f53c d24e d9bc ee6d af3d
000000d0: 2dd8 df3d 62e1 e93c af84 cdbc d2d3 723d
000000e0: 9d89 b13d 08e5 0a3c 0b8c 9d3d 3446 9bbd
000000f0: d124 8a3c d8ce 29bc 3bb0 02be 11da ba3d
00000100: ff52 a4bb a87c fabb 7cb1 f03c 93ed 9ebd
00000110: db13 9b3b a5fc 013d a208 1abd d145 0dbd
00000120: 7f11 f23c 8fcf 333d 6c01 20be a9d2 273c
00000130: 17ac 07bd 6eb7 eabb 7c3d 20bc 6e3a 883d
00000140: 2f0d 0abe 78c5 c43b e563 96bc a26f ff3d
00000150: 7595 79bd 0cd2 a2bc fa9b eb3d 43f4 20be
00000160: a83d 19bd 9d25 ec3d dd53 9c3d 4543 f6bd
00000170: dedf 643d bfb0 f7bc 9ff2 8ebd b168 36bc
00000180: ada3 3d3c 0803 e8bc 8ab4 8d3d 1917 3abd
00000190: 7a87 a4bd 5105 fc3a da93 edbc c796 a3bd
000001a0: 102e a33d edf5 323e 69e2 54bd 9f0f 0dbd
000001b0: a7e3 123a 5a50 f83d 4074 a7bd 9bbc 1e3d
000001c0: d5cb d0bd 4476 64be dbe5 09bd e118 163e
000001d0: 0ff2 04bd be6b 063e d084 31bd 8566 0ebe
000001e0: 005f 1fbd 995e a83c faaf 3d3d fbae 783d
000001f0: 430e bcbd 991d 6cbd 79b1 493c 9dc8 6e3d
00000200: 8cdc 1e3d 1a8d 033e 44f0 02bd 4cb0 8c3d
00000210: 2723 88bd e380 71bc fb1e 79bd f66d 603e
00000220: d91d 933d 32c0 8abc eb50 30bd 7410 ea3e
00000230: 88da 303c bc96 90bd deff c03c 2d00 cfbd
00000240: 80ff 92bd 8ebf 153e 9d49 db3d 556d 81bd
00000250: 6fd9 c0bc 1038 1d3d 142c a6bd 8c4d b53c
00000260: 0334 953d 69c5 773d 8380 5abd 8137 1c3d
00000270: b928 b2be 4135 083d c755 513d 7053 cf3c
00000280: a7e4 29bd 1d0f 90bd 72b7 83bd 902e f3bc
00000290: f8b6 a43c 5377 a43d 4bf9 b23e 005b 83bc
000002a0: 48d4 cf3d e4c3 c13d 040d 203b 6d85 83bd
000002b0: 8fb6 813b 28f5 2fbd 6c57 3cbe d3f7 0d3e
000002c0: 41d7 7fbb 9d17 003d b677 e7be b149 aabd
000002d0: 7beb 0bbe dc48 56be 8fd6 053e a392 a8bc
000002e0: 64cb b53d c523 9cbd 9307 a4bc d4e0 853d
000002f0: 7662 213d d218 cd3d 0f5f 08b9 23b0 9d3e
00000300: 2a2a 21bd 5fbf 8cbd e888 933c dc70 1ebe
00000310: 1693 b5ba 3dac b0bd 3fae 0b3e 644f 61be
00000320: 762b 00be 469c 533d f7ed 223d 45e8 8abc
00000330: bd76 503d d6c0 24bb 3dc8 a5bd e211 b3bd
00000340: f046 2ebd cb51 393d baad 3b3d a436 423a
00000350: f867 d53d 30ea 11bd 193a f53d 565e 10ba
00000360: 085b 24bd 6e5a 88bf fccc b03c 3e4e 27bd
00000370: 6dc3 cd3d 560b 643b 0e6e b03a 22a0 c93b
00000380: 2e92 abbc 55a2 a6bd dd66 c1bc c379 e7bc
00000390: 66e4 1cbc 9b5a bb3d a15b 38bd 0244 c03d
000003a0: 29ae c93d 1888 8dbd 9746 e0bd 3122 603b
000003b0: 7abd 7dbd c87c e4bb 907a 96bd f606 663d
000003c0: 424a 80bd 37ce 9e3c f9cf ae3d 2a13 57bc
000003d0: 3a3d 61bd 178b 823d 508c 803d d39f 7abe
000003e0: 141b 953d 2c31 e23c 8a17 da3c f09c 093d
000003f0: d4c9 2bbe be4e b4bd d55b 263e 737b 84bc
